experiments/random_forest-20260109_143905/checkpoint_2026-01-09_14-39-30.733326/model.pth (torch, 17799 bytes, 13 tensors)

network.0.weight f4 [64, 10]
00000000: ec2f c3bc 1b9b 3e3e a025 b5bd 20ab 6f3e
00000010: f9b4 84be d4d0 3d3e 023b 6f3e ee9a 653e
00000020: 843e 623d 2d47 263e 4dce f4bd 2041 e83c
00000030: 06d2 523e 12a4 24bd 8707 86be b4e9 283e
00000040: 26be 14be dbdf 9f3e 634d 5bbe 0695 d03d
00000050: f255 93be f5ce 2bbe 2e58 a5be 3fab 7bbe
00000060: b56a 543e b811 77be 4b95 8fbd dafc 87bd
00000070: aea1 973e 154d 5fbe c79b dfbc 1b6f 983e
00000080: 864d dd3d 2457 1cbe fe88 18be c601 89be
00000090: a74d 52be 66d1 8b3e 7667 7fbe 4ebb 973e
000000a0: 5687 083e 0c91 4dbd f731 203c c74b c9bd
000000b0: c218 113e d999 373e 8fd0 6c3e 0e2b 6b3e
000000c0: 6ff5 423e 0651 90be f84e 8abe bc40 5bbd
000000d0: 6b0d 62be 829a b9bd 2687 10bd a1f1 933e
000000e0: d9f0 9cbe 19d6 803e cd26 8fbd 3e79 a8bd
000000f0: 58aa 303e 188e 7dbd 7f2e 03bd 70a1 09be
00000100: 26bb a93d 4970 82be 7810 c23c 4b5f c3bd
00000110: b0f8 0f3e 1a8e 0c3d 6a87 8c3e a0b3 da3d
00000120: ce02 8e3e 24a8 343e b586 8f3d 031a 143e
00000130: 19f4 75be 128f 24be 8ac1 883e 763d 9d3e
00000140: 9709 823e 4700 e1bd 948a 7a3d 6743 7c3e
00000150: fbb8 7b3e 0825 573e c25f a53e ed75 d8bd
00000160: 7286 86bd 04ec 733e 0c04 003e fd6a bdbd
00000170: 7304 f5bd 1441 853e 6081 80be 5a3c 913e
00000180: 223a e7bd 76b9 0cbe 6ef5 743e 9416 333e
00000190: e532 033e 8eb0 59be 3dac d53d 0d08 89be
000001a0: 2f64 3bbd 8cb3 bfbd b446 533e c08c 8fbe
000001b0: 77d0 e03d 2f35 9ebe ecba 72be b452 823e
000001c0: a901 2cbd 56b8 643e 48d3 e43d b253 89be
000001d0: 549f 3ebe 0582 93be 488e 8c3d 0ce7 153e
000001e0: 7bfd 173e 777a 8bbe 3b58 84bb f87f 2f3e
000001f0: 3b62 863e cace 76bc 3c20 82bd f216 31be
00000200: 8872 3ebe 8a7d ecbc 24f9 93be ebbb 16bd
00000210: a04a 233e c31f 9abe e1d2 193e 00bf 193d
00000220: 13e8 2abe a567 9d3e 4c5c 9b3e acc8 67be
00000230: a419 293e ba60 8dbe 734f 863d 9284 5b3d
00000240: 6ac7 ccbd 37b9 5b3e f942 f5bd 5667 663e
00000250: bd70 0fbe 0935 f5bd 4399 91bd 1463 923e
00000260: 623e 88be 2bdc a2bd d3f6 76bd 4613 883e
00000270: 0b7e 273d 7401 873e 34d4 713e 2a2b 943e
00000280: 71bd 8abe cc4e 583e 924c aa3c 3567 47bd
00000290: 3f66 c6bc 6ded 4abd d83e 423b abfe 013e
000002a0: 9d27 dfbc cdef 293a ee98 963e 4420 fc3d
000002b0: 5da1 303e 83ab e83d d15e 73be 1bcc 8bbe
000002c0: dcb0 423e e381 66be 0dcb 9ebe ee77 a33c
000002d0: 5b90 23be ce76 0f3d 773e 45be a887 6cbe
000002e0: 5bae 85be 5826 16be f78a 21bd 734c 60be
000002f0: 5fac 8b3d c57e 8f3d 7cd3 253e a49f 3ebe
00000300: 86ae d53d 583a e6bd 0fd8 a5bd e573 a33c
00000310: 29b7 2bbe 41ab f93d d4cb 883e 1486 23be
00000320: cc97 49bd 4f90 83be 632e 8d3c e274 babb
00000330: 5aff 26be 904b 923e 5b7e 5a3d 012c 4e3e
00000340: 9401 9d3e 85f3 0f3e 5ffb 803e af97 873e
00000350: c5a2 503e 1622 2fbe 18eb eebd e555 93be
00000360: d274 17be d1fd 853e 3796 413d f847 90be
00000370: e1a4 1e3e 3424 893e af21 2c3e 3a07 9fbe
00000380: 1ae1 6b3b 8460 553e ac16 503e ee84 f83b
00000390: 94be 013d 733f 983e e139 9dbe 15d1 96be
000003a0: 4a67 48bd 7a33 173d dffe 863e 0737 bebd
000003b0: 9768 9cbe 226f 773d 2147 24bd a217 ef3d
000003c0: 55c0 8bbd 4580 4fbe 6734 5d3e 6b2d 6bbe
000003d0: 9ee5 723e 3321 0f3d 6130 9abe a166 3a3e
000003e0: c4a3 84be a551 9dbd deaa 053e 06fb 1abe
000003f0: 1962 b4bd 855e 583e 3d4e 62be 365f a1be
-0.023826562 0.18613856 -0.08845067 0.23405123 -0.2591932 0.18536693 0.23362353 0.22422382
0.0552354 0.16238089 -0.11953411 0.028351367 0.2058793 -0.040195532 -0.26177618 0.164954
-0.14525661 0.31225476 -0.2141624 0.10184674 -0.2877651 -0.16778167 -0.32293838 -0.24577044
0.2074383 -0.24127853 -0.07010897 -0.066400245 0.2961554 -0.21806748 -0.02729596 0.29772267
0.10805802 -0.15267617 -0.14896008 -0.26759166 -0.20537435 0.27308196 -0.24941811 0.2963509
0.13332877 -0.050187156 0.009777538 -0.098289065 0.141696 0.17929782 0.23126434 0.22965643
0.19038938 -0.28186816 -0.27013373 -0.053528532 -0.22075431 -0.09062673 -0.035285138 0.28895286
-0.30652502 0.25163344 -0.069898225 -0.0822625 0.17252481 -0.06190309 -0.032026764 -0.1344049
0.08287649 -0.25476292 0.023689494 -0.0953966 0.1405971 0.034315206 0.27447063 0.10678792
0.27736515 0.17642266 0.07008115 0.14463048 -0.24018897 -0.16070202 0.2671016 0.30710953
0.2539794 -0.10986381 0.061167315 0.24635087 0.24582283 0.2101022 0.3229962 -0.105693676
-0.06568612 0.23820502 0.12501544 -0.09248922 -0.11963739 0.26026213 -0.25098705 0.28366357
-0.11290385 -0.13742623 0.23921749 0.17489082 0.12812383 -0.21258757 0.104332425 -0.26763955
-0.04574984 -0.09360418 0.2063244 -0.2803707 0.109772615 -0.3089995 -0.23704118 0.25453722
-0.04199377 0.22335944 0.11173111 -0.26821667 -0.18615466 -0.28810135 0.068630755 0.14638919
0.14842789 -0.2724187 -0.004038838 0.1713866 0.2624682 -0.015063951 -0.063538045 -0.17293909
-0.18598378 -0.028868455 -0.28901017 -0.036800306 0.15946436 -0.30102357 0.1502185 0.037535667
-0.16690092 0.30743137 0.30343854 -0.22635144 0.16513687 -0.2761286 0.065581225 0.053593226
-0.09998973 0.21457373 -0.11975665 0.22500357 -0.1400785 -0.11973006 -0.071093105 0.28591216
-0.26610094 -0.0795215 -0.060293984 0.26577204 0.04089169 0.26368296 0.23616105 0.28939182
-0.27097657 0.21123809 0.020788465 -0.04868241 -0.024218677 -0.049542833 0.0029639509 0.12694804
-0.027240569 0.00064825715 0.2941355 0.12310842 0.17249055 0.11360838 -0.23766638 -0.27304158
0.19012779 -0.22510485 -0.3101429 0.019954648 -0.15973036 0.03502541 -0.1926211 -0.23098624
-0.26109585 -0.14663064 -0.039439168 -0.21904163 0.068199866 0.07006601 0.16193956 -0.18615586
0.10433678 -0.11241597 -0.080978505 0.019952724 -0.16769089 0.12190867 0.2671801 -0.15969115
-0.04921703 -0.25696036 0.017234033 -0.005690203 -0.16308346 0.28573275 0.05334316 0.20133974
0.30665267 0.14057739 0.2519178 0.26482913 0.20374592 -0.17102847 -0.11665934 -0.2877647
-0.14790657 0.2617021 0.047262397 -0.28179908 0.15492584 0.26785433 0.16809724 -0.310602
0.0035992325 0.20837599 0.20321149 0.007584206 0.03167589 0.29735908 -0.3070822 -0.29456392
-0.04892663 0.036914326 0.26366326 -0.092878394 -0.30548546 0.06040872 -0.040106896 0.116744295
-0.06823794 -0.20263775 0.21602021 -0.22966544 0.23720405 0.03494377 -0.30115035 0.18203212
-0.25906193 -0.07681588 0.13053462 -0.1513482 -0.08807773 0.21129806 -0.22100158 -0.31517953

network.0.bias f4 [64]
00000000: fbd1 f3bd 62ec d63d 9969 873e d396 d13d
00000010: 3fa6 7d3e 5665 5a3e ee59 613d acb0 d53d
00000020: 8b77 3fbe 9a5a 4f3e 2384 bfbc d6c9 593d
00000030: 29e7 1b3e 6fd8 a53d bc86 8bbe 3fa9 173e
00000040: 0de3 4abe a4fd 543e f3b8 353c fdd2 dbbb
00000050: 822a 92bd 32fc 813e a387 38bd fcba 0d3e
00000060: c139 0abd aa1d 69be 393f f7bd 2214 37be
00000070: 2221 7b3e 99f1 a03e 7edd ad3c ae32 723e
00000080: 767c bc3d d091 343e 7780 ab3d 1fd8 88bd
00000090: 7a60 81bd 153d b5bd 02fd 943e cabf b1bc
000000a0: bdaf 74be 9f92 623d c9de 743d 9ca6 8f3e
000000b0: 5a28 9fbe fd80 533d 30df f7bc ed67 203e
000000c0: 6130 c03c 0a7f 9a3e b009 643e 6507 75be
000000d0: f61c ecbd b9c1 28be e1b1 1dbd 3cb1 dfbd
000000e0: b75f 8a3e 88ca 36be e478 76be 22c0 12be
000000f0: 2780 33bc e60b 30bd 8485 ee3d 419f 0abe
-0.11905285 0.10494305 0.26447752 0.102338456 0.24770449 0.21327719 0.055017404 0.10434088
-0.18697946 0.20249406 -0.023378437 0.053171 0.152249 0.08097922 -0.27251232 0.14810656
-0.19813175 0.20799881 0.011091459 -0.0067085014 -0.07137014 0.25387722 -0.04505123 0.1384086
-0.033746485 -0.22765222 -0.12072606 -0.17878774 0.24524358 0.31434324 0.02122378 0.23652145
0.092034265 0.17633748 0.08374112 -0.06681847 -0.063172296 -0.08849541 0.2909928 -0.021697897
-0.23895164 0.05531561 0.059782777 0.280568 -0.31085473 0.051636685 -0.030257791 0.15664645
0.023460569 0.30175048 0.2226932 -0.23928602 -0.11528961 -0.1648015 -0.038499717 -0.10922477
0.2702615 -0.17850697 -0.24069554 -0.14331105 -0.010955847 -0.042980097 0.1164656 -0.13537313

network.1.weight f4 [64]
00000000: 0002 813f df76 7e3f 301c 813f f7ce 7d3f
00000010: 0183 7e3f 171b 813f e13c 803f 1938 803f
00000020: 1653 803f 4056 7f3f 44a0 803f 769b 7f3f
00000030: 0e91 803f 3447 7f3f 53ed 803f cb54 7e3f
00000040: 7e0c 803f 5dd0 7e3f 8a06 803f 7dc4 803f
00000050: 7b81 7d3f e418 7f3f 7f4f 803f 4fe7 7e3f
00000060: 7fce 803f 72f2 803f dd06 813f da0f 7f3f
00000070: aec1 7f3f 29ee 7e3f 08f9 7f3f ec4b 803f
00000080: 9ba2 7d3f 390f 813f bf32 803f 3116 803f
00000090: 5a83 7f3f acc7 803f c341 7e3f c00c 803f
000000a0: c605 813f ecb3 803f 9c38 803f 3404 813f
000000b0: c8b4 803f 9490 803f da92 803f f790 803f
000000c0: fe45 7f3f 8f5a 803f 9d39 803f ed4a 803f
000000d0: 3995 7f3f d899 7f3f 966f 7f3f f44f 7f3f
000000e0: 81e5 803f 1c34 7e3f 1725 803f e1e0 803f
000000f0: c4f8 803f 4dd8 803f ce96 7d3f c456 7e3f
1.0078735 0.9940013 1.0086727 0.9914393 0.99418646 1.0086392 1.0018579 1.001712
1.0025356 0.9974098 1.0048909 0.9984659 1.0044267 0.9971802 1.0072426 0.99348134
1.0003812 0.9953669 1.0001996 1.0059963 0.99025697 0.99647355 1.002426 0.995717
1.0063018 1.0073988 1.008022 0.9963356 0.99904907 0.99582154 0.99989367 1.002317
0.9907624 1.008277 1.0015486 1.0006772 0.998098 1.0060935 0.99319094 1.0003891
1.0079887 1.0054908 1.0017276 1.0079408 1.005517 1.0044122 1.0044816 1.004424
0.99716175 1.0027636 1.0017582 1.0022866 0.9983707 0.9984412 0.9977964 0.99731374
1.0070039 0.9929826 1.0011319 1.0068628 1.0075917 1.006601 0.99058235 0.99351144

network.1.bias f4 [64]
00000000: ed85 083c 23e1 0dbc 84e3 e0bb 4c85 16bc
00000010: 58cd a1bb 8f40 d13b 17ea 96bb b5dd adb9
00000020: b976 463b 0c9c 09bc 19b9 ef3b 8c0e 1abc
00000030: 216a b1bb 7949 90bb e11b 1f3c bc7e 00bc
00000040: 3ac3 7bba 711b 06bb 4f51 293b 4fae d93b
00000050: 01cd 1cbc 8816 8ebb 25e4 8cbb 4eef c6bb
00000060: c2f4 c23b f797 913b 1873 84ba b8d2 ccbb
00000070: 88dd df39 ca52 5dbb 0040 7334 8d81 d13b
00000080: 54fd 13bc 9f57 f43b 36b3 80ba a0a0 1aba
00000090: a2aa 9f3b c2ba b6bb ba31 00bc 5e86 b039
000000a0: 6d96 663b c388 a83a 30b9 d5b7 3c9b 0d3c
000000b0: 7e50 d239 87db 123c d137 0d3c 0812 8738
000000c0: b2e3 60bb bd46 f43b f1b8 1f3a 4def 173c
000000d0: aea6 f6bb 1a33 cd3b b0ad 2839 a7c8 2abb
000000e0: ad69 0f3c be85 f4bb 4c69 3339 0b11 d03b
000000f0: e245 0d3c 2c45 f23b c186 1cbc f57c 10bc
0.008332712 -0.008659634 -0.0068630595 -0.009187054 -0.004937809 0.00638587 -0.0046055424 -0.00033162316
0.0030283167 -0.008399021 0.0073157665 -0.009402882 -0.005414263 -0.00440329 0.009711237 -0.007842716
-0.0009603981 -0.0020463134 0.0025835817 0.0066430937 -0.009570361 -0.004336182 -0.004299658 -0.006071008
0.0059495876 0.0044431644 -0.0010105101 -0.0062507056 0.00042698928 -0.003377127 2.2654422e-07 0.0063936175
-0.009032566 0.0074567343 -0.0009819034 -0.0005898569 0.004872636 -0.0055764625 -0.007824356 0.00033669447
0.0035184876 0.0012858141 -2.5477813e-05 0.008642968 0.00040114293 0.008963472 0.008619265 6.44066e-05
-0.0034315404 0.0074547217 0.0006092927 0.009273362 -0.007527194 0.0062621953 0.00016086432 -0.002605954
0.008753222 -0.0074622324 0.00017109996 0.006349688 0.008622618 0.0073935 -0.009553612 -0.008818855

network.1.running_mean f4 [64]
00000000: 9271 85c2 97a7 85c2 05bb 5942 f600 1dc2
00000010: df08 1242 6ea1 0bc1 55a1 b641 b01f 9141
00000020: ecb7 8042 3919 82c2 89b4 2fc1 0f20 de41
00000030: 649e 8842 e669 1e42 2f82 cec1 ca7c 76c1
00000040: 0865 f1c0 bc55 7bc2 cedf 86c2 2458 9fc1
00000050: 74cb 2cc2 659a fac1 db3e d13f 44c4 8a42
00000060: bf51 7a42 7c9d 69c2 c5c6 57c2 fe5e 3d42
00000070: c42d adc1 1af1 8b42 08ef e341 02d7 79c2
00000080: 94f2 2641 4d7c 9cc2 c320 98c2 0e7c 8dc2
00000090: b540 a342 95a3 3542 50b8 9ac0 4718 a341
000000a0: e24f 87c1 45db a042 3dcf f441 d571 02c1
000000b0: a27a b441 3961 9e41 5345 8bc2 66a7 86c1
000000c0: 7ccd 2441 ed08 8f40 8c0e 0ac2 16de 8542
000000d0: 7b78 3f42 853e 48c2 71bb 0d42 03e4 efc1
000000e0: 52cb 9042 b49b 9cc2 4e8a 80c2 199f 9dc2
000000f0: 41b0 64c2 97dc 6542 7380 3fc2 7094 9cc2
-66.72182 -66.827324 54.432636 -39.25094 36.508663 -8.726912 22.828775 18.140472
64.35922 -65.04926 -10.981576 27.765654 68.30936 39.603416 -25.813566 -15.405466
-7.543583 -62.833725 -67.43712 -19.918037 -43.198685 -31.325388 1.6347307 69.38333
62.57983 -58.403793 -53.94411 47.342766 -21.647346 69.9709 28.491714 -62.45997
10.434223 -78.242775 -76.06399 -70.742294 81.62638 45.409748 -4.834999 20.386854
-16.914005 80.42826 30.60119 -8.152791 22.55988 19.797472 -69.6354 -16.831738
10.300167 4.4698396 -34.514206 66.93376 47.867657 -50.061054 35.43305 -29.986334
72.39711 -78.30411 -64.27013 -78.81074 -57.172123 57.46542 -47.87544 -78.28992

network.1.running_var f4 [64]
00000000: 3523 1045 3e21 1045 4ebe bd44 0bdd 4744
00000010: 92bb 2744 6578 2142 c59a 8543 1d70 2843
00000020: 40db 0445 8764 0845 478a 7342 bebc c843
00000030: 135f 1645 94ce 4744 4ff5 a843 55e8 0143
00000040: 0974 ec41 e8c3 fd44 6185 1145 aa0d 4d43
00000050: 688f 7244 8edf ff43 e4f6 cf3f 44ad 1a45
00000060: 9000 fd44 25ae d844 72e5 bc44 bdae 9144
00000070: 5c23 7943 b73b 1c45 8ad6 ce43 acf1 fe44
00000080: d08e 6b42 1c47 4545 fc74 3945 dca5 2145
00000090: 9fe4 5445 2fe6 8544 d39f 6141 9a49 5443
000000a0: 14fd 1443 c2f4 4e45 7996 f143 2111 1242
000000b0: b9fc 8543 7bc7 4a43 fc24 1a45 0377 1143
000000c0: 37d6 5742 3a37 2a41 0e70 1944 cf93 1045
000000d0: aa8f 9444 59d7 a044 5db1 2144 f73a e043
000000e0: 258b 2645 ae07 4545 bd3e 0345 d439 4745
000000f0: a250 d144 5b54 d644 fe03 9444 bf61 4545
2306.2004 2306.0776 1517.947 799.4538 670.9308 40.367573 267.20914 168.43794
2125.7031 2182.283 60.885036 401.47455 2405.9421 799.2278 337.91647 129.90755
29.556658 2030.1221 2328.3362 205.05338 970.2407 511.74652 1.624722 2474.829
2024.0176 1733.442 1511.1702 1165.4606 249.13812 2499.7322 413.6761 2039.5522
58.889465 3156.4443 2967.3115 2586.3662 3406.2888 1071.1932 14.10152 212.2875
148.98859 3311.2974 483.17557 36.516727 267.9744 202.77922 2466.3115 145.46489
53.959194 10.638483 613.75085 2313.238 1188.4895 1286.7296 646.7713 448.46066
2664.6965 3152.48 2099.9211 3187.6143 1674.5198 1714.6361 1184.1248 3158.1091

network.4.weight f4 [32, 64]
00000000: 436b 4e3b 9443 a33d ae73 a63d 7ce5 eebd
00000010: 22cc d63c fdf3 07be 0f97 68bd 52da 8f3d
00000020: 9d50 86bd 350c 95bd 48e2 1c3c 7f4d 983d
00000030: 1525 4f3d 4cae 60bd c127 9f3d 8ba8 01bc
00000040: 85b3 abbd 9ddd a4bd a39b 9c3d 883c 91bd
00000050: 6ca1 a1bd c303 20bd 1c01 223d 4188 eb3d
00000060: d3bc 9d3d 3974 d83c fc0c 0cbd f6b9 b2bd
00000070: 372d 3d3d 0411 453d bcee 6abd 1d15 d7bd
00000080: 9c06 88bd 3090 863d bd82 e1bd 5e89 e13d
00000090: 27a9 083e 620b c13d a8f2 a4bd a7cf d43d
000000a0: 3f2c 3bbd e4a4 043e ff5b 98bb 5213 e63c
000000b0: f998 a33d b1c7 b5bc bb97 963d cfa2 5fbd
000000c0: 04f4 75bd 792d 58bd b602 b13d 81a1 a2bd
000000d0: 8b68 fe3d e33e 3fbb d118 d43d cfe3 a23d
000000e0: b557 533d dfeb 9b3d 057b b7bd 8d46 813b
000000f0: 7c28 f2bd 9927 e9bd 34c8 023d 98dd 32bd
00000100: 70a9 cd3c a23d 363d bc33 083e 0b99 d73d
00000110: cca7 913d 0693 a8bc cbc3 47bd c0c8 8fbd
00000120: eadc 97bc 22ec 33bd 389f 653d a818 c5bd
00000130: 541b ab3d 9e21 69bd 2027 fdbd 00c1 c53d
00000140: 0ff4 3a3d f856 d43d 13ee 423d 08ae 703d
00000150: c454 f2bd 435f 6a3d 3230 073e db38 023d
00000160: 48c9 9ebd 0860 03be 4c25 07be 4bf8 ad3d
00000170: 77be d03d 9a18 cbbd 4053 acbd 57b5 ab3d
00000180: 0d71 c73d 8085 b9bd d802 3b3d 3cab a93d
00000190: 18a2 523d 3c14 9b3d 4a8c 953d 88bb cd3d
000001a0: 7a22 8abc 9838 b0bd 1e89 f7bd 4f7d d03d
000001b0: 3b52 ae3d 953e e03c da67 7c3d ea3b 9ebd
000001c0: 4d18 9bbd 7621 dabc 5cee 4b39 1014 f3ba
000001d0: 0820 01be 00b8 37bb 9421 efbd 2df6 fa3c
000001e0: 8a32 fbbb 222c c1bd 9910 99bd c93d 07be
000001f0: 1356 87bc a1e7 a4bd 2912 363d 8fd5 cb3d
00000200: f84b ed3a ed3a 1b3d 4530 3fbb f14a 0f3d
00000210: bfbd bebd e975 d6bd e5dc c6bd f8d3 be3d
00000220: 40ac 823c 442f 7e3d c81d bebd 4640 963b
00000230: 65cb 2c3d 2927 3cbc 54f2 c53d a74e 9b3d
00000240: badc b33c 9785 82bd 5a65 b7bd dec8 6cbd
00000250: 1017 8f3c 7a8a f1bc c7d4 c8bd d047 323d
00000260: e904 7abd d814 febd f720 4d3c 28d2 ed3d
00000270: f23b b1bd e399 40bc 6894 81bd 16b0 84bc
00000280: 6d38 d73c 3e23 e33c b621 473d 1a1f fdbd
00000290: 95e9 f73d 6f2c cf3c 3c3a d53d 2d99 a63d
000002a0: faa7 04be 762f 91bc cd60 0abd f9fe 6fbd
000002b0: 7156 43bc 7de9 e93c 63b8 d0bd f57a 07be
000002c0: c662 d9bc 0177 a13c 2b0f 99bd c1ae 3abd
000002d0: 252f 8ebd e75b 4ebd b79e c83d a316 9e3c
000002e0: 9c45 4e3d b9f4 953c 2066 3c3d d7e8 e73c
000002f0: b10e a2bd fa23 013e 097f f9bd fdf0 ce3d
00000300: 9338 15bd 6687 b7bd 1abd 6dbd f843 b7bd
00000310: 5a75 4f3d 5809 553d 3152 b9bd 3ed9 b6bc
00000320: 90e1 af3d 0ae8 37bc 323a f0bd e8af cebd
00000330: 725a 503d 3c2e f83c 2bb6 8dbc 176d b53b
00000340: 094e 99bd 7492 6ebd ebe4 04be 7254 32bd
00000350: 5693 83bd 8800 8bbc b12c b0bc 921d debd
00000360: 68fe dd3d 9af9 2c3d 4686 46bd 22fd 52bd
00000370: e33b 7dbd beb4 b73d 1819 39bc 27e2 b0bd
00000380: 0326 513d 4d9c 28bd 48af 463c 3322 8d3d
00000390: e5f2 90bb 0f18 c8bc def1 cb3d 3d67 c53d
000003a0: c03a 133b e420 9d3c 8c93 68bd 56e0 8ebd
000003b0: 0436 b4bc 99b0 853d 9573 2abc 8e04 c63d
000003c0: 8d37 073e 0ec0 e83d 440d cb3b d39a bc3c
000003d0: 0b7d 6b3d 7724 9d3c c174 623d ea87 fab9
000003e0: 081e f93d e971 e4bd 86a8 1ebd 758e 293d
000003f0: 2b2c e2bd 22ef ea3b 4fad df3d b6b5 fe3c
0.0031497038 0.07971874 0.08127533 -0.116648644 0.026220385 -0.13276668 -0.056784686 0.07024063
-0.065583445 -0.07277719 0.009575434 0.07436656 0.050572474 -0.054853722 0.07771254 -0.007913719
-0.0838385 -0.08050082 0.07646873 -0.070916235 -0.07892117 -0.039066087 0.03955184 0.11500598
0.07702031 0.026422607 -0.03419207 -0.087268755 0.0461857 0.04811193 -0.05735658 -0.10502074
-0.06641886 0.0657047 -0.110112645 0.11012529 0.13345776 0.09425999 -0.080540955 0.10391169
-0.045696493 0.12953526 -0.0046496387 0.028085385 0.079881616 -0.022189947 0.07353159 -0.054598626
-0.060047165 -0.05277774 0.08643095 -0.07940961 0.12422284 -0.002918177 0.10356296 0.07953607
0.051597316 0.07613348 -0.08959011 0.003945178 -0.11824128 -0.11384506 0.03192921 -0.04366836
0.025105208 0.04449237 0.13300985 0.105272375 0.07112083 -0.020577919 -0.048770707 -0.07020712
-0.018537957 -0.043926366 0.056060046 -0.096238434 0.08354822 -0.056916825 -0.12360978 0.096559525
0.04564291 0.103681505 0.047590327 0.05875972 -0.11832574 0.057219755 0.13201979 0.031792503
-0.07753235 -0.12829602 -0.13197821 0.08494624 0.10192578 -0.09916802 -0.08414316 0.08384197
0.097383596 -0.09058666 0.04565701 0.082846135 0.051424116 0.07572219 0.07302149 0.10045534
-0.016862143 -0.086045444 -0.120867 0.10180151 0.08511778 0.027373591 0.061622478 -0.077262715
-0.075729944 -0.026627284 0.00019448384 -0.0018545408 -0.12609875 -0.0028033257 -0.116763264 0.030634964
-0.007665937 -0.09432246 -0.07473869 -0.13207163 -0.016520536 -0.08051992 0.044450913 0.099528424
0.0018104305 0.037897993 -0.0029173058 0.03498358 -0.09313535 -0.10471708 -0.09710101 0.093177736
0.015951276 0.062056795 -0.09283024 0.0045852987 0.04218616 -0.011483946 0.09665361 0.07583361
0.021955837 -0.063731365 -0.08954878 -0.05780875 0.017467052 -0.029484976 -0.09806209 0.043525517
-0.06103984 -0.124063194 0.012520066 0.1161235 -0.08654012 -0.011755439 -0.06327134 -0.016197246
0.026272023 0.027726766 0.048616134 -0.12359448 0.12105099 0.025289742 0.10411498 0.08134685
-0.12954703 -0.017722826 -0.033783723 -0.05859277 -0.011922465 0.028553719 -0.10191419 -0.13230498
-0.026536357 0.019710066 -0.07473596 -0.045576815 -0.06942586 -0.050380614 0.097958975 0.019297903
0.050359353 0.01830517 0.04599583 0.028309269 -0.079129584 0.1261138 -0.12182433 0.101045586
-0.036430907 -0.08961372 -0.05804167 -0.08948511 0.050649025 0.052010864 -0.0904888 -0.022320386
0.085879445 -0.011224756 -0.1172985 -0.10092145 0.050867505 0.030295484 -0.017298779 0.005536686
-0.07485587 -0.058245137 -0.1297795 -0.043537565 -0.064245865 -0.016968027 -0.021505686 -0.10845484
0.1083954 0.042230226 -0.048467897 -0.051510938 -0.06182469 0.08970021 -0.011297487 -0.08636885
0.05106164 -0.041164685 0.012126751 0.068912886 -0.0044234865 -0.024425535 0.09958242 0.09638832
0.0022465438 0.019180723 -0.056781337 -0.069763824 -0.021998413 0.06527824 -0.0104035335 0.096688375
0.13204785 0.113647565 0.0061966497 0.023023045 0.057492297 0.019182427 0.055287126 -0.0004778498
0.12163931 -0.11154539 -0.038734935 0.041395623 -0.110435806 0.00716962 0.10921728 0.031092506

network.4.bias f4 [32]
00000000: 4e9d f8bb 2d44 10bc e8e4 42bd c842 ad3d
00000010: f406 c1bd 89d0 f5bd 141f b33d 01f2 7a3b
00000020: c9b1 c0bd 45c4 dbbc 48da 86bd 516c 283d
00000030: 03d6 b93b 1029 283d 7930 36bd 6dc8 e5bd
00000040: cca8 ed3c 204c 743d 8062 b4bd d257 f0bd
00000050: 827f 903d 4d46 843d f176 20bd 1901 84bd
00000060: ab59 c73d f664 123d 2e33 cabd d9de f23d
00000070: 5880 133d dab8 ec3d 9e51 983d f37a e3bd
-0.0075871116 -0.008805317 -0.047581583 0.08460003 -0.09425154 -0.120026655 0.08746162 0.0038291218
-0.0940891 -0.026826987 -0.065846026 0.041118924 0.005671264 0.041054785 -0.04447982 -0.11219869
0.029011153 0.05964291 -0.0880785 -0.117355004 0.0705557 0.06458721 -0.03917593 -0.06445522
0.097339 0.035740815 -0.09873043 0.11858911 0.03601107 0.11558695 0.07437442 -0.11107435

network.5.weight f4 [32]
00000000: 1f49 813f 34c2 7d3f 0949 813f e348 813f
00000010: 514b 813f 687d 7d3f 1d3c 813f 71ae 7d3f
00000020: fe3d 813f 7941 813f 8441 813f fe85 7d3f
00000030: 9e73 7d3f ae93 7d3f ae71 7d3f 0ab9 7d3f
00000040: ad81 7d3f dc80 803f 1b84 7d3f 8648 813f
00000050: b17c 7d3f ef79 7d3f 4777 7d3f f789 7d3f
00000060: ef44 813f 3e41 813f d189 7d3f 7e44 813f
00000070: 4449 813f b036 813f 557a 7d3f 129b 7d3f
1.010044 0.99124455 1.0100414 1.0100368 1.010111 0.9901948 1.009647 0.990943
1.0097044 1.0098106 1.0098119 0.9903258 0.9900454 0.99053466 0.99001586 0.9911047
0.99025995 1.0039325 0.990297 1.0100257 0.9901839 0.9901418 0.9901013 0.9903864
1.0099162 1.0098035 0.99038416 1.0099027 1.0100484 1.0094814 0.9901479 0.99064744

network.5.bias f4 [32]
00000000: 89be 243c 6822 12bc f88e 233c 7816 243c
00000010: bdfc 253c 5f6b 21bc b9a2 1f3c ce57 16bc
00000020: e7a8 203c 5d7f 223c 3273 223c e3eb 1ebc
00000030: eb18 23bc d790 1ebc a1da 23bc b008 15bc
00000040: 2061 20bc 5008 833b 309b 1fbc 0be0 233c
00000050: 8ba7 20bc 84b3 21bc 3662 22bc 314d 1ebc
00000060: 0d34 233c 9b6f 213c ee24 1fbc 9fc6 223c
00000070: ebf9 233c d45e 1d3c 1782 22bc 93de 1cbc
0.010055193 -0.008919336 0.009982817 0.010015123 0.010131058 -0.009852259 0.009743386 -0.009176208
0.009805894 0.009918061 0.00991516 -0.009699794 -0.009954671 -0.009678087 -0.010000856 -0.00909631
-0.009788781 0.0039987937 -0.009741589 0.0100021465 -0.00980557 -0.00986946 -0.009911111 -0.009661959
0.00996114 0.009853269 -0.009713395 0.00993505 0.010008316 0.009605128 -0.009918711 -0.00957455

network.5.running_mean f4 [32]
00000000: af17 553d e07d f33c 2bcf 28be 663c c53c
00000010: 731f 0fbe ffff 6fbe 2522 0f3c a066 85be
00000020: 0762 c33d 2cc6 21be c19f 003e 6dbf 4abd
00000030: a1a6 ad3d 3769 5c3b b742 dfbd 2cdb ab3d
00000040: d54e b1bb 6309 0cbe 3216 213e d792 9cbd
00000050: 32a6 afbc f954 b63e 53af b6be a8ad 683e
00000060: c126 c0bd d210 e5bd 3fc2 edbd 86b3 32be
00000070: e86b 0bbe 49b8 b03e 7773 fe3c 93dd 0dbe
0.05202454 0.029723108 -0.16485278 0.024076652 -0.1397684 -0.23437499 0.008736168 -0.2605486
0.095401816 -0.15798253 0.12560941 -0.049498964 0.084790476 0.003363205 -0.10901397 0.08391413
-0.005411009 -0.13675456 0.15731123 -0.07645195 -0.021441553 0.35611704 -0.35680637 0.22722495
-0.09382392 -0.11184849 -0.11609315 -0.17451295 -0.13615382 0.34515598 0.031060917 -0.13854055

network.5.running_var f4 [32]
00000000: f279 063f 0791 ea3e 589c ff3e fe37 173f
00000010: b8a1 c23e 236f c83e ce1b f43e ce56 193f
00000020: d982 d23e b224 c53e dd8d c73e 1af9 c23e
00000030: 3d4f 053f 0c0c 003f df0f 083f 9454 d23e
00000040: 599f c13e 77a5 ca3e 88ae cc3e 4d80 443f
00000050: 54c7 ca3e 1098 f03e 1728 f33e 2712 d43e
00000060: 9ff1 003f d58b e53e 9716 c93e 4e1b d53e
00000070: 885d cb3e b6a7 063f df0c cd3e 8b16 c83e
0.52529824 0.45813772 0.49923968 0.5906981 0.38014007 0.3914729 0.47677463 0.5989808
0.41115454 0.3850456 0.3897542 0.38080674 0.52074033 0.5001838 0.5314922 0.41080153
0.37816885 0.39579365 0.39976907 0.7675827 0.396052 0.46991014 0.47491524 0.414201
0.50368685 0.44833246 0.39275047 0.41622394 0.39719796 0.52599657 0.40048882 0.390797

network.8.weight f4 [1, 32]
00000000: 0efa 263d 7818 1bbb dde5 c03d 6868 303e
00000010: 3c68 8e3c 1f2c e0bd 555d 813d aab7 9cbb
00000020: d2d0 8f3d 696f 373e 8034 a83d e568 bebc
00000030: b812 27bd f2b3 f5bd ff1b 23be ee30 d7bb
00000040: 95a8 b7bd 4c25 103c b14b 90bd e136 343e
00000050: d69e b3bd 0f88 9dbd 3aa0 61bd 709a ecbc
00000060: 6097 403c d3e4 623d a9ce f6bd 91a0 273e
00000070: 9201 6a3d 5f88 273e 7a88 3bbd 67b8 02bd
0.040765814 -0.0023665708 0.09418843 0.17227328 0.017383687 -0.109459154 0.0631663 -0.0047826366
0.07022251 0.17913593 0.082131386 -0.023243377 -0.040789336 -0.119972125 -0.15928648 -0.006567112
-0.08967701 0.008797955 -0.07045687 0.1759906 -0.0877053 -0.07691967 -0.055084445 -0.028882235
0.011754841 0.055394005 -0.12051136 0.16369845 0.057130404 0.16360615 -0.04578445 -0.03191414
