experiments/random_forest-20260109_165825/checkpoint_2026-01-09_16-58-50.427144/model.pth (torch, 17799 bytes, 13 tensors)

network.0.weight f4 [64, 10]
00000000: bd25 fbbd 092b c4bd 89c7 bdbd 7cbe a03d
00000010: 6c4d 2c3c b0bd 75be d186 9dbe 38c9 283e
00000020: c212 77be d724 9cbe 8ace 1f3e 327a 99be
00000030: f66a 4ebd 06bb 51bd 019f b6bc d4df 58be
00000040: 8168 6e3e 0605 09be 2ec3 063e b3c3 283e
00000050: 64e1 7cbe 9fdf 623e 9faf 5d3e 98da 90be
00000060: a48b ab3d 9082 87bd abed 15be e86a 30bc
00000070: 676b 8bbe 2126 a33e cc18 883e 5fe3 7b3e
00000080: 13aa 833e 658f 323d 7330 9bbe 4bee df3c
00000090: 56ba 553e 32f5 353e 92da 11be 4cb8 933e
000000a0: 48bc 1abe 2d6c 0d3e de25 663e 817c 9cbd
000000b0: c70b 3cbe 145b 06bc cb23 e43b e5be 4d3e
000000c0: 2ac3 323b 1f3c 27be 3452 8bbe 837c 0abe
000000d0: 4344 b93d f5e7 e33d 9727 26bd fc78 a53e
000000e0: 1734 fbbd 11e8 85bd 4a32 14be fe17 fdbd
000000f0: 5814 93be 3a6f c33b f2b9 4f3e 1c71 dbbd
00000100: 4d26 c3bc 6f64 283e f220 afbc be84 99be
00000110: 9c52 23be 76c5 073e 9f9a 22be 97a4 60bd
00000120: 59ae 26be 8bdf 593e 9fc4 d73d 83ce 5e3e
00000130: 3fd0 b93d 6120 193e 2606 0bbd 95a9 b03d
00000140: 580f 28be f5e6 7d3e deff de3d bb05 763e
00000150: 53bd 38be edcf a4bd 950b aa3c 3c98 92bd
00000160: 912e ca3d 8e1b aabd e4be a73d b7a1 a4bd
00000170: e983 56bd a506 8b3e f222 a53c 0a7e 12be
00000180: 0494 6a3e 15e9 f73c f07d e13c af52 90be
00000190: 8093 173e d700 853e 771b 72be 2c92 4d3e
000001a0: 3d67 0cbd 716c 59be 460b b53c db1e 353d
000001b0: 9066 fd3c a3d0 1f3e 5e3c 36be b6e0 37be
000001c0: 116f c1bd 8001 003e 5f0a 763c 9b82 953d
000001d0: 2c29 983e 1138 8b3e 92e2 ffbb 090e 083c
000001e0: 018f c63d 7f9b 273d 2b18 653e 7e46 90be
000001f0: 08cd 5ebe 1ba9 633e 1cf1 69bc eafb 86be
00000200: 9651 533e 8e35 9bbe 0647 46be 7259 89be
00000210: d060 d9bd c114 9f3c 16e6 223e b5d9 7ebe
00000220: eb4c 123e 4cff 013e f471 943b 648c 1fbe
00000230: 13a1 59be a0b7 61bd 734a e63d 4eea 4fbe
00000240: bddb eebd fc90 19bb 76e9 643d 6ba5 953e
00000250: cd0f 5f3e 4a12 7bbe 1fea 7d3d 077e 18be
00000260: 6d5f 4e3e 067a 86be 147f 9b3d c99b 98be
00000270: f486 013e bc0a e0bd 4b92 683e f182 71be
00000280: fc76 8d3e e475 8f3e ef65 843e 0d22 abbd
00000290: f052 22be 1b41 893e aa8f 60be 5f50 563e
000002a0: f36b 15bd efab 82be eb6c fe3d 991e 2b3e
000002b0: ef6c 72be b60a e73d 81cb 40be 328f adbd
000002c0: 3114 2fbc 9e85 7b3e 19ec b0bd 9b51 4f3d
000002d0: ab68 60be 5ab3 9cbc 6d33 aa3c 9582 be3d
000002e0: 590b 7e3e 923d ecbd bff7 afbd 9e98 9b3e
000002f0: 1cce 803e 59be 6a3e b230 7bbe d9cf 8bbe
00000300: 5d0a 103e ca3b 49be d82a 903c 14f8 533e
00000310: 248c 8f3e 0345 813c 4dee 99bd 534a 23be
00000320: 591a 4f3e 9d50 633d 6d64 69be d890 dd3b
00000330: d3b2 713e b3e5 543e eac1 85be 676b 163e
00000340: 7b8b 8a3e 6e09 6e3e 82de 933e a6b4 ba3d
00000350: 59e2 7a3d 44ee 8c3e 2123 21bc a7b7 acbd
00000360: c601 9b3e b5f1 8dbe b450 4e3d 2ddf e2bd
00000370: 6c10 5c3d 44a4 66be aa11 b83d 0001 c8bd
00000380: 1ba8 40be 1432 2f3d c5b2 87be 0a3a 8a3e
00000390: 3bba 62be 5e65 a33d 528f 6b3e 17cf 363e
000003a0: 8ba1 ea3d 13ed f4bd 2551 953e ad0b 03bd
000003b0: 7233 9ebe 3251 863e e2c1 4cbe a652 933e
000003c0: 47d5 953d dfaf 5c3e 2f35 12be 787b 02be
000003d0: bfd3 823c a558 f53d 1fbe 8a3c cb22 e1bc
000003e0: 5c24 58be d1b0 873e cbbb c13d cdcf 853d
000003f0: ae67 d93d 9abf 41be 530d 3b3e 271a b7bd
-0.122630574 -0.09578521 -0.09266574 0.07848832 0.010516506 -0.23998141 -0.3076692 0.16483009
-0.2412825 -0.30496857 0.15606132 -0.2997604 -0.050394975 -0.05120375 -0.022292616 -0.21179134
0.23282053 -0.13380823 0.13160393 0.16480903 -0.24695355 0.22155617 0.21649025 -0.28291774
0.08376244 -0.066167 -0.14641444 -0.010767676 -0.2723038 0.31865028 0.2658142 0.24598454
0.25715694 0.043593783 -0.303104 0.027335307 0.20871863 0.17769316 -0.14243534 0.28851545
-0.15110886 0.13810797 0.22475383 -0.07640935 -0.18363868 -0.008200426 0.0069622747 0.20092352
0.0027276971 -0.16331528 -0.27211154 -0.1352406 0.09046223 0.11128227 -0.0405651 0.32318866
-0.12265795 -0.06538404 -0.14472309 -0.12358092 -0.2872646 0.005964187 0.20285776 -0.10714933
-0.023821974 0.16444562 -0.021378014 -0.29984087 -0.15949482 0.13258919 -0.15879296 -0.054844465
-0.16277446 0.21276681 0.10535549 0.21758465 0.09072923 0.14953758 -0.03394141 0.08626095
-0.16412103 0.24795134 0.108886465 0.24025624 -0.18040971 -0.08047471 0.020757476 -0.07157943
0.09872163 -0.08306037 0.08190706 -0.08038657 -0.052371893 0.27153507 0.020158265 -0.14305893
0.22908026 0.03026251 0.027525872 -0.28188083 0.1480236 0.25977203 -0.2364329 0.20075291
-0.034278143 -0.21232773 0.022100102 0.04421888 0.030932695 0.15606932 -0.17796466 -0.17956814
-0.09445012 0.12500572 0.015017121 0.07300302 0.29718912 0.27191213 -0.0078089917 0.0083041275
0.096952446 0.040919777 0.223725 -0.2817878 -0.217579 0.22232477 -0.014278676 -0.2636407
0.20636591 -0.30314296 -0.19363031 -0.26826054 -0.10614169 0.019419076 0.15908083 -0.24887736
0.14287154 0.12695044 0.004530186 -0.15580899 -0.21252851 -0.05510676 0.11244669 -0.20304224
-0.116630055 -0.0023432365 0.05588671 0.29227766 0.21783371 -0.24518695 0.061990853 -0.14891826
0.2015359 -0.26264971 0.075925976 -0.29806355 0.12649137 -0.109395474 0.22712056 -0.23585106
0.2762984 0.2801963 0.2585902 -0.08356104 -0.1585195 0.26807484 -0.21929803 0.20929097
-0.0364799 -0.255218 0.12423118 0.16710891 -0.23674367 0.1128134 -0.1882763 -0.08474578
-0.010685966 0.2456269 -0.08638782 0.050614934 -0.21914928 -0.01912849 0.020776475 0.0930225
0.24809016 -0.11535181 -0.08592176 0.30389875 0.2515725 0.22924174 -0.24530295 -0.27307013
0.14066453 -0.19651714 0.017598554 0.20700103 0.28036606 0.015779978 -0.075161554 -0.15946321
0.20224895 0.0554968 -0.22792216 0.0067616515 0.23603372 0.20790748 -0.26124507 0.14689408
0.2705954 0.23245785 0.28880697 0.09116487 0.06125102 0.27525532 -0.009835036 -0.084334664
0.3027479 -0.2772347 0.050369933 -0.11077724 0.0537266 -0.225236 0.08987744 -0.09765816
-0.18814127 0.042772368 -0.26503578 0.26997405 -0.22141354 0.07978319 0.23003891 0.17852436
0.11456593 -0.11959281 0.2916347 -0.031993557 -0.30898625 0.26233822 -0.19995835 0.28773993
0.0731607 0.21551464 -0.142781 -0.12742412 0.015970109 0.11979798 0.01693636 -0.02748241
-0.2110762 0.26502088 0.09459647 0.065337755 0.106154785 -0.18920746 0.18266802 -0.08940535

network.0.bias f4 [64]
00000000: 6ba5 893e a880 4e3d b4e4 933e 3212 5abe
00000010: 8e34 673e c4a6 8cbd a5f1 80bd 85c4 0dbe
00000020: f1ed 4bbe d170 5f3e c8a5 973c 7ec7 72be
00000030: cb84 ceba d7de df3d a904 f1bd cceb 2cbd
00000040: 90b6 523e e3f2 08be 96e4 b2bd 86ef 203e
00000050: 5e85 00be d2c7 c3bd 9aa4 62be 137c 993d
00000060: 66d4 023e 4000 963d 157c 373e c74d 693e
00000070: 1a80 aeba e61a 28be a316 a0be af71 c5bc
00000080: 656b f13d 16af 423d 8149 eb3d 2f8e 57be
00000090: 6738 8bbe ff47 123e 11d9 2bbd b230 163e
000000a0: a86e 903e 6eef c0bd f51b 37be c983 77be
000000b0: 3f60 a1bd 02a8 16be 6388 9dbe a0b0 f73d
000000c0: 7696 433e 71a9 8e3e 0e5f 4cbe 918b e6bd
000000d0: 86d1 633e 267c 94be bd23 493e 95e8 3e3e
000000e0: d56c 4bbe 1e37 64be 4ef2 9cbe ffbe 213e
000000f0: aa82 c5bc d751 a93c ca8d 2dbe d5cd 9cbe
0.26884016 0.050415665 0.28885424 -0.21296003 0.22578642 -0.068677455 -0.0629609 -0.13844498
-0.19914986 0.2182038 0.018511668 -0.23708913 -0.0015756128 0.10931175 -0.11768467 -0.04221706
0.20577455 -0.13373904 -0.087350056 0.15716371 -0.12550876 -0.09559597 -0.22133103 0.074943684
0.12776336 0.073242664 0.17918427 0.22783576 -0.0013313324 -0.16416511 -0.3126727 -0.02410206
0.11788062 0.047530256 0.11488629 -0.21050332 -0.2719147 0.14285277 -0.041955058 0.14667013
0.28209424 -0.094206676 -0.17881759 -0.24171366 -0.078796856 -0.14712527 -0.30768117 0.120942354
0.19100365 0.2786365 -0.19958135 -0.11257089 0.22247896 -0.29000968 0.1964254 0.1864341
-0.19865735 -0.2228665 -0.30653614 0.15795515 -0.024110157 0.020668907 -0.1694862 -0.30625787

network.1.weight f4 [64]
00000000: 3c55 803f 0068 803f ba19 7e3f 04dc 803f
00000010: 82e8 7d3f 3b0d 813f 80dd 7e3f 9397 7e3f
00000020: e782 803f e5c2 803f 9ae2 7d3f 911d 813f
00000030: dca5 7e3f 1c1f 813f 3282 7d3f 80f2 7d3f
00000040: 8d6a 7f3f e023 803f adbc 7f3f a6f9 7f3f
00000050: a2c2 803f 03dc 803f e932 813f c134 7e3f
00000060: 2f08 813f 1fe6 803f 340a 7f3f 01f0 7d3f
00000070: a6e8 803f 6b5c 7e3f 7c51 7e3f 9da6 7d3f
00000080: ecf1 803f 7093 803f 80a8 7f3f ab0d 813f
00000090: 84f2 803f 1a3e 7e3f 2017 813f 64b5 7f3f
000000a0: 52ec 7d3f 00ea 803f 5b79 7e3f e45c 7f3f
000000b0: 787b 803f b180 803f f134 803f dac2 803f
000000c0: af5a 803f 56c5 7d3f ee34 7e3f 8e83 803f
000000d0: d511 813f c466 7f3f 56ef 7d3f 22ba 803f
000000e0: 630e 813f 8b16 7f3f e071 7e3f 2529 7e3f
000000f0: 50ba 7f3f 6456 803f e048 803f bb4f 7e3f
1.0026011 1.0031738 0.99258006 1.0067143 0.99182904 1.0082163 0.9955673 0.99450034
1.0039948 1.0059477 0.9917389 1.0087148 0.9947183 1.0087619 0.9902679 0.9919815
0.9977196 1.0010948 0.9989727 0.9999031 1.0059397 1.0067142 1.0093662 0.99299246
1.0080622 1.0070227 0.99624944 0.9919434 1.0070999 0.9935977 0.99343085 0.99082357
1.0073829 1.0044994 0.99866486 1.0082296 1.007401 0.9931351 1.0085182 0.99886155
0.9918872 1.0071411 0.99403924 0.99751115 1.003768 1.0039274 1.0016156 1.0059464
1.0027674 0.99129236 0.99299514 1.0040147 1.0083567 0.9976618 0.9919332 1.0056803
1.0082515 0.9964377 0.9939251 0.9928153 0.99893665 1.0026364 1.002224 0.9934041

network.1.bias f4 [64]
00000000: c8f3 d2bb 92b3 9f3b 76a1 16bc ca38 d53b
00000010: 0f01 0abc 0232 0e3c 7f49 12bc 24a8 903b
00000020: a981 4f3b 8dda d73b 3139 303b 020c 1c3c
00000030: a79f f7bb 9385 103c c717 1ebc 9ee0 14bc
00000040: 811d 08bb 3aa4 c33b 0070 1bbb 68c7 aa3b
00000050: df2e bc3b 32a6 143c ddb1 0e3c 1a84 81bb
00000060: 3e12 da3b 160e 0fba 9a6c 92bb cedd 10bc
00000070: ff22 103c 781e 0cbc 4247 04bc a73a e23b
00000080: 3502 573b 51a7 683b 0135 c13b f5b7 64bb
00000090: 0a10 9cbb 6f72 f6bb 42a9 b7ba d1fa e83b
000000a0: 74ba 12bc 97e3 e83b 93e7 e2bb 8f04 243b
000000b0: 94db 9d3b 61dc af3b 76cb 833b 7cd5 f33b
000000c0: d054 083b f6eb 07bc 2379 02bc 2f7f 5d3b
000000d0: 2792 183c 3f38 11bc 2e9f 1cbc 3686 f53b
000000e0: 7578 ca3b ed12 11bc c81f b9bb e654 78ba
000000f0: 734d fb3b f1d8 d33b b6f3 d7ba 14a3 7abb
-0.0064377524 0.0048737014 -0.009193769 0.006507014 -0.008423104 0.008678915 -0.008928656 0.004414575
0.0031662977 0.0065873326 0.0026889557 0.009524347 -0.007556874 0.008820909 -0.009649224 -0.009086756
-0.0020769539 0.005970505 -0.002371788 0.0052117594 0.005742892 0.009072827 0.008709398 -0.0039525153
0.0066550067 -0.0005457116 -0.0044685127 -0.008841945 0.008797406 -0.008552186 -0.00807363 0.0069039646
0.0032807712 0.003550012 0.005896211 -0.0034899686 -0.004762654 -0.0075209658 -0.0014012235 0.007109978
-0.008955587 0.007107209 -0.0069245785 0.0025027131 0.0048174355 0.0053668474 0.004022057 0.007441221
0.0020802505 -0.008296004 -0.007963452 0.003379773 0.009312189 -0.008863508 -0.009559436 0.007492806
0.0061789104 -0.00885461 -0.0056495406 -0.00094731 0.007669145 0.0064650704 -0.001647583 -0.0038244175

network.1.running_mean f4 [64]
00000000: 67da 0240 95a4 dac0 fe3c a841 a766 9fc2
00000010: d2c4 42c2 df63 40c1 675a dbc0 bd97 e541
00000020: 62cd 37c2 359e d140 5419 0ec1 a186 a940
00000030: 3da5 5ec2 81c4 2a42 ea2d eac1 a239 a741
00000040: 7d1c 24c2 ab72 41c2 3fd4 8242 6c86 bb40
00000050: 185b 7142 3bd6 febf 9fa0 45c2 d9da 9842
00000060: 5b0f 6440 eb0a 4242 637a 98c2 5d56 8a41
00000070: edd2 4d42 b7d2 6e42 dc0a 8bc2 45e3 5840
00000080: ae6c 0842 10e9 21c2 b452 b7c1 0bbe 8cc2
00000090: ac89 89c2 1d1f 9742 da5f 48c2 4564 9842
000000a0: ccfe 2f42 7bc6 0e41 60b7 8f41 6150 6a40
000000b0: f521 d6c1 5827 66c2 35a0 0a42 18dc 91c2
000000c0: de6f aec1 1592 d9c0 296f 3042 7687 9ac2
000000d0: 8e55 4dc2 6771 7ec2 705d 0942 377e 8240
000000e0: 238a c8c1 2d88 8142 b4ba a0c2 1c3a 5e42
000000f0: a15f 97c2 58ba 51c2 8cb5 68c2 24cb 28c1
2.0445802 -6.8325906 21.029781 -79.70049 -48.692207 -12.024383 -6.8547854 28.699091
-45.95057 6.5505624 -8.881184 5.297684 -55.661366 42.6919 -29.272419 20.903141
-41.02782 -48.36198 65.41454 5.860159 60.33896 -1.9909128 -49.406857 76.42744
3.5634372 48.510662 -76.23904 17.29217 51.455982 59.705776 -69.52121 3.3888714
34.106133 -40.4776 -22.915382 -70.37118 -68.76889 75.56077 -50.093605 76.19584
43.998825 8.923457 17.964539 3.661156 -26.76658 -57.53842 34.656452 -72.92987
-21.804623 -6.7990823 44.108555 -77.26457 -51.33355 -63.610744 34.341248 4.077907
-25.06745 64.76597 -80.364655 55.556747 -75.686775 -52.431976 -58.17729 -10.549595

network.1.running_var f4 [64]
00000000: 0d4b 3640 d4cc cf41 c4f9 6043 4adc 4c45
00000010: 90cc 9944 f5b7 8f42 be65 b741 7d0e d343
00000020: 4cd3 8644 2a57 ab41 e41c 2942 3f91 6641
00000030: 9e75 c544 0980 6844 4849 de43 9d02 6243
00000040: e120 5944 b9a9 9644 df4d 0845 348f 8c41
00000050: b47e e944 f6f1 2740 acd5 9b44 8901 3b45
00000060: 48a1 d740 c2b5 9644 8ab0 3c45 f88f 1543
00000070: 14d8 aa44 28e7 e344 8fb8 1a45 5f69 ba40
00000080: a147 1544 c637 5144 255d 8443 4fca 1e45
00000090: 196b 1745 f97e 3645 b548 a244 16bb 3945
000000a0: 0108 7444 84f6 2642 61c3 2343 362c 1741
000000b0: 78a6 b943 f23f d444 23d5 1a44 f102 2b45
000000c0: bbce 7a43 3801 cd41 66cc 7c44 c933 3f45
000000d0: a571 a844 c1bc 0045 3819 1444 de44 1141
000000e0: d49e a343 a92e 0745 0c06 4f45 e268 c544
000000f0: 107a 3845 bbdd b044 b531 d944 f4f8 6642
2.8483307 25.975014 224.97565 3277.768 1230.3926 71.85929 22.924679 422.1132
1078.603 21.41756 42.278214 14.41046 1579.6755 930.00055 444.5725 226.01021
868.51373 1205.3038 2180.867 17.569923 1867.9595 2.6241431 1246.6772 2992.096
6.7384377 1205.6799 3019.0337 149.56238 1366.7524 1823.2236 2475.535 5.8253627
597.1192 836.87146 264.7277 2540.6443 2422.6936 2919.9358 1298.2721 2971.6929
976.12506 41.740738 163.7632 9.448294 371.30054 1697.9983 619.33026 2736.1838
250.80754 25.625595 1011.1937 3059.2366 1347.5514 2059.797 592.39404 9.079313
327.24084 2162.9163 3312.378 1579.2776 2951.629 1414.9291 1737.5533 57.74312

network.4.weight f4 [32, 64]
00000000: db55 bbbd f2cb de3d e18e 3bbd 9b7a de3d
00000010: c123 5cbd b7f0 f63d 9b36 d93d 9a7e 2c3d
00000020: 7f51 9f3c 1637 e6bd d105 fbbc a52a e3bd
00000030: 2de8 f1bd 625f febd 43fb a03d f443 813d
00000040: 56b2 91bd b268 b2bd c69b 7b3d e23f 1f3d
00000050: d5a0 4dbd 233e fa3d 6f83 513b 62aa ca3d
00000060: 7f83 c9bd 0a59 00bd 9aa1 f33d 469d b03d
00000070: 21cc cdbd 4605 40ba f6b5 d3bd fce1 fa3c
00000080: 80be d2bd b30b 0f3d d2eb d13d 357c 55bd
00000090: cb18 a73d fd26 a73d 6589 4dbd 1126 853d
000000a0: b2db bd3d ee12 afbd 7e1e c1bc 26e2 dd3d
000000b0: 4923 bdbc 53bf 003e 3a76 9b3d bdd1 c8bd
000000c0: 487b e6bc 9ef1 babd 747e 583d 2062 a83c
000000d0: e9d7 e1bc b63d 153d f1c3 093d 07c8 05bc
000000e0: c169 8f3d a9c1 f8bd 01a3 c9bd 2005 4e3d
000000f0: 49d4 c5bb 4ac1 593d 5a6c a7bd ec06 f03d
00000100: 60a4 98bb dbf8 5f3d 3709 c1bd 6b22 04bd
00000110: 1c46 e1bd 3591 04be 6405 cbbd a4fb c0bd
00000120: 5f81 133c 0a82 813c 31b2 623d 570b d53d
00000130: 7144 51bd 6e1c 4abb 2239 2f3d 9040 04bc
00000140: a50c 4ebd b7fb 3d3d ab5f a73d 35e3 363d
00000150: 5bcb 813d 2c8e 903d ec49 82bd 21df 80bb
00000160: e879 a93d f0f5 60bd 6ff2 dc3d 4b54 51bc
00000170: 6ec4 c23d 9ee2 923d 90cb e03d ff53 c1bc
00000180: 1db2 8d3c 9773 67bd e872 26bd 9626 09be
00000190: ab54 4c3d cbda 953c 869c 79bd 5351 9bbd
000001a0: 1f06 e7bc e694 7e3d a361 f93d 448c af3d
000001b0: 8e51 81bd 472d d3bd b448 d73d 09a3 ffbd
000001c0: b2aa 8d3d 8a0c f3bd af3e 38bd f107 d93d
000001d0: 868a f1bd b247 c7bd b191 b13d 37c0 cdbc
000001e0: 58ff cd3c e27f c9bd 9244 af3d 2f86 003e
000001f0: 9abb 593d 7a59 8a3d 1117 9dbd 4fab d3bd
00000200: 71a0 a53d 6534 9c3d 3845 c1bc e848 b9bd
00000210: a703 cabd fb3d c63b 1ad3 cdbc de66 97bb
00000220: 6f11 e4bd 4c7f afbd 5cf8 0fbd 01fd 21bd
00000230: 85f4 f1bd 005c 473d f7fe cfbc 9abe bf3d
00000240: 264b bfbd 78c5 c13c a50a adbc b3cb a4bd
00000250: 352b e7bd 074c e9bb 0846 493d 6d52 2b3d
00000260: 90c4 fabd 65e4 84bd d867 fcbd d4dc d038
00000270: 203a d7bd 5be8 e43d 00e5 e3bd af9c e73d
00000280: 5900 d43d 4866 e6bd 676a 4fbd 6c8c 35bd
00000290: ca87 f9bc 2c5f 7dbd f407 0cbd 37ef f23d
000002a0: 356e aebd b06f c83d 5603 01be b8c5 03be
000002b0: 7e89 c8bd 716f bbbb 5d8c 953d c345 083d
000002c0: 53b5 77bc 212c 133d 7cfd d3bd 12e4 c03d
000002d0: bf7c c13c 8782 91bd 87bb c4bc 1aae e9bd
000002e0: c1c9 d1bd c904 e83d 27b6 39bd 921d 01be
000002f0: 4f25 df3d 8378 753d 79b8 073c b60f a4bd
00000300: 2c75 98bd 328f 9bbd 896f e9bd e34d 14bd
00000310: 3737 753d f179 e2bd 0ff0 bf3d fe7e 693d
00000320: f008 3b3d 81fd 8bbd fd25 933d 49c8 543d
00000330: c3f4 b0bd 2670 dabc 6f54 dc3d b9a2 92bd
00000340: 6622 2dbd 708b e7bb da40 efbd f7d8 96bd
00000350: 29a5 cd3d 0d39 31ba 9107 fdbd cc6b 0fbd
00000360: e023 ba3c 1624 703d a8ad 413d ebad b43d
00000370: 410e 823d 1105 683d 77f3 d3bd 76bb 883c
00000380: 67a6 37bd 479b a8bc 8f4b 12bd cb8d c93b
00000390: 4117 103c b76a e7bd f934 27bd 91d7 a3bd
000003a0: 339f 8b3d b279 90bc c1ed 013e 614e 343d
000003b0: df82 79bd 16e4 b2bc 02f6 93bd 6eeb 843d
000003c0: 76d7 f4bd 2900 fbbd 1da1 d63d 24b9 79bc
000003d0: 975d cd3d 578a 363d b1d1 943d abae b13d
000003e0: d1e1 753d a7a4 7bbd 4c94 e8bd 3d8d db3d
000003f0: afe5 eebd 3f2b e0bd 8934 9e3c 1288 aabb
-0.09147235 0.10878743 -0.045790557 0.10863229 -0.053745035 0.120576315 0.10606118 0.042112924
0.01944804 -0.112409756 -0.030642422 -0.11092118 -0.11811862 -0.124205366 0.07860424 0.06311789
-0.07114093 -0.08711375 0.061427854 0.038879283 -0.05020221 0.12218883 0.003196921 0.09895779
-0.09839534 -0.031334914 0.118960574 0.086237475 -0.100487 -0.00073250046 -0.10337441 0.030625336
-0.10290241 0.034923267 0.10250057 -0.052120406 0.08159026 0.08161733 -0.050179858 0.06501401
0.09270419 -0.085485324 -0.02357411 0.1083415 -0.023088114 0.12572984 0.07590909 -0.098056294
-0.028134957 -0.09128116 0.05285497 0.020554602 -0.027568774 0.036435805 0.03363413 -0.008165366
0.07002593 -0.12146313 -0.09845544 0.050297856 -0.0060372693 0.05316285 -0.08174963 0.1172007
-0.004658267 0.054680686 -0.09425586 -0.032259386 -0.109997004 -0.12946017 -0.099131376 -0.09422997
0.009003012 0.015809078 0.055345718 0.104025535 -0.05109066 -0.00308397 0.042779095 -0.0080720335
-0.050305028 0.046382632 0.08172544 0.044650275 0.06337615 0.07058367 -0.06361756 -0.003932849
0.08275205 -0.054922044 0.10788428 -0.012776445 0.09510122 0.0717213 0.109763265 -0.023599623
0.017296845 -0.05650672 -0.040636927 -0.13393626 0.049885433 0.018292805 -0.060940288 -0.07583871
-0.028201161 0.06215372 0.12176826 0.085716754 -0.063143834 -0.1031137 0.10511914 -0.12482268
0.06917323 -0.11867626 -0.044981655 0.10597218 -0.117939994 -0.09730472 0.086703666 -0.02511607
0.025146171 -0.09838845 0.085580006 0.12551187 0.053157426 0.067553475 -0.07670415 -0.10335409
0.080872424 0.07627181 -0.023592576 -0.09047109 -0.09863978 0.006049869 -0.025125075 -0.004620417
-0.11136138 -0.08569202 -0.035148963 -0.039547924 -0.118142165 0.048671722 -0.025390131 0.09362526
-0.09340505 0.02365373 -0.02112324 -0.08046665 -0.11287538 -0.007119659 0.049139053 0.041826654
-0.122445226 -0.06488875 -0.12324494 9.959345e-05 -0.10509133 0.11177131 -0.11127663 0.11309182
0.10351629 -0.11249977 -0.050638583 -0.04432337 -0.030460257 -0.06185834 -0.034187272 0.11862033
-0.08517114 0.09786928 -0.12598929 -0.12868392 -0.097918496 -0.005720072 0.07302163 0.033269655
-0.015118915 0.035930756 -0.10351083 0.09418501 0.023619054 -0.07104974 -0.024015201 -0.1141016
-0.1024356 0.11329038 -0.04533973 -0.12608936 0.10895788 0.059929382 0.008283728 -0.08010809
-0.07444224 -0.07595672 -0.11398227 -0.03620709 0.05986711 -0.11058415 0.093719594 0.057005875
0.04566282 -0.068354614 0.0718498 0.05194882 -0.086404346 -0.026664805 0.10758292 -0.07159943
-0.042269133 -0.007066183 -0.11682291 -0.073656015 0.100412674 -0.00067605154 -0.12354959 -0.035014912
0.022722185 0.058628164 0.047284752 0.08822235 0.06350375 0.056645457 -0.103491716 0.01669095
-0.044836428 -0.020581855 -0.03571659 0.0061509362 0.008794607 -0.11299651 -0.040822003 -0.080001004
0.06817474 -0.017636154 0.12688352 0.04402006 -0.060915824 -0.021837275 -0.07224657 0.06490217
-0.119551584 -0.1225589 0.10479949 -0.015241895 0.100276165 0.044565525 0.07266558 0.086758934
0.06002981 -0.06143632 -0.113564104 0.107202984 -0.116649024 -0.109457485 0.01931216 -0.005204209

network.4.bias f4 [32]
00000000: 9d3b 353c aa5e 02be 0d2f 833d db70 0abd
00000010: 1e93 803d 2dfe d6bd 71ce a0bc db00 e73d
00000020: b570 f5bd b270 ccbd 2ed8 b33d e8fd e03d
00000030: ef57 a63d ce41 e7bd 5576 a43d a07b 363d
00000040: 4bc3 10bd 8be0 f6bd c708 48bd da3d 00bb
00000050: 0692 f33d 0daa bebd a78b 25bb 1477 e83d
00000060: e0c5 9f3d c8a9 0dbd 12d2 75bd 9289 083d
00000070: 3515 683c 1cd0 c2bc 6ef2 9c3d 24cf 3cbc
0.011061576 -0.12731424 0.064054586 -0.033799034 0.062780604 -0.10497699 -0.019629689 0.1127946
-0.11984388 -0.099824324 0.087814674 0.10985929 0.08122241 -0.11291848 0.080303825 0.04455149
-0.035342496 -0.12054547 -0.048836496 -0.0019568116 0.11893086 -0.09309778 -0.0025260241 0.11350837
0.078014135 -0.034585744 -0.06001479 0.033334322 0.014165212 -0.023780875 0.07663427 -0.011523996

network.5.weight f4 [32]
00000000: 0577 7d3f 9234 813f ad8b 7d3f cc3e 813f
00000010: ee3b 813f 363e 813f f035 813f e6ac 7d3f
00000020: 14a7 7d3f 9640 813f 06b0 7d3f e49a 7d3f
00000030: 247b 7d3f 634a 813f d1a6 7d3f dfa3 7d3f
00000040: ac72 7d3f 3e3d 813f 1774 7d3f a571 7d3f
00000050: 9690 7d3f b797 7d3f c3e0 7d3f a473 7d3f
00000060: fd47 813f f675 7d3f 2b93 7d3f ad46 813f
00000070: cb2a 813f eb78 7d3f b242 813f 2a97 7d3f
0.99009734 1.0094168 0.99041253 1.0097289 1.0096414 1.009711 1.0094585 0.9909195
0.99083066 1.0097835 0.99096715 0.9906447 0.9901602 1.0100826 0.99082667 0.9907817
0.990031 1.0096815 0.99005264 0.9900153 0.99048746 0.99059623 0.99171084 0.9900458
1.0100094 0.9900812 0.99052685 1.0099694 1.0091184 0.9901263 1.0098479 0.99058783

network.5.bias f4 [32]
00000000: bc5b 21bc 99ad 1e3c 727a 1cbc 4fb0 203c
00000010: a5c5 223c c153 213c 4575 1e3c e5ee 11bc
00000020: fcd0 1dbc 9516 223c 7fa5 19bc dc4f 1dbc
00000030: 82b0 21bc f584 253c c6c3 1bbc f728 1cbc
00000040: e387 24bc 280c 1f3c d221 22bc 77f0 22bc
00000050: 8cb9 1bbc 16d4 1bbc 8a7b 0dbc 95ce 23bc
00000060: 20a6 243c 03d7 22bc 283e 1dbc 0f0f 253c
00000070: c424 1a3c 7e2d 21bc 7d66 213c c9be 1ebc
-0.009848531 0.009684944 -0.009550678 0.00980766 0.009934817 0.009846629 0.009671514 -0.008907055
-0.009632345 0.009893079 -0.009377836 -0.0096015595 -0.009868743 0.0101025 -0.009507125 -0.009531251
-0.010042164 0.009707488 -0.009895759 -0.009945027 -0.009504687 -0.009511014 -0.008635411 -0.009997983
0.010049373 -0.009938958 -0.009597339 0.010074391 0.00940818 -0.009837506 0.009851095 -0.009689041

network.5.running_mean f4 [32]
00000000: 6f7f cd3d 3625 a2bd b514 bbbe 6208 09be
00000010: 4499 c93c c12a 36be 6985 bcbd a47e a13e
00000020: 26ad 6dbd 87b5 11be e0cd 023e bd96 84bc
00000030: 35c6 7f3d 6fa6 67be e693 a33d 97fa 453d
00000040: 8385 333b 84bf 703c a8b2 6c3e f4ac 36be
00000050: d38e 6b3e a73f 343d a1d5 f3ba f197 933c
00000060: a1c4 07bd a091 83be e198 2bbe a0e7 773e
00000070: 5213 093e a8a5 c4bd 5d41 ba3d 59cc 81bc
0.10034072 -0.07917254 -0.36539236 -0.13382104 0.024609216 -0.17789747 -0.092051335 0.31541932
-0.058026455 -0.14229403 0.12773848 -0.016185159 0.062444884 -0.22622083 0.07987194 0.048334684
0.0027392812 0.014694098 0.23115027 -0.17839414 0.23003702 0.044006016 -0.0018603095 0.018016787
-0.033146504 -0.2569704 -0.16757537 0.24209452 0.13386276 -0.09601909 0.09094498 -0.01584451

network.5.running_var f4 [32]
00000000: 648f d63e 0f34 123f bfbd 093f a748 e63e
00000010: ad5e c63e b6f3 d03e 9831 053f 16c1 da3e
00000020: d5fc d23e 7476 f33e 3296 dc3e 7ec5 053f
00000030: 3001 da3e fba9 fc3e 3652 ce3e dcc5 ea3e
00000040: 17fc e63e 8306 c83e 1537 f53e 0d0b d43e
00000050: 8895 ce3e b2df c33e fe88 e63e c5a8 d73e
00000060: f61f e03e 0517 ed3e 3040 c83e d7a8 623f
00000070: 8b22 083f 4fc1 d43e 1b29 c43e 1083 c33e
0.41906273 0.57110685 0.53805155 0.44977304 0.38744107 0.40810937 0.520288 0.42725438
0.4120852 0.4755131 0.4308334 0.52254474 0.4257903 0.49348435 0.40297097 0.4585408
0.45114204 0.39067468 0.47893587 0.4141468 0.40348458 0.38256603 0.45026392 0.42120948
0.43774384 0.46306625 0.3911147 0.8853888 0.5317771 0.41553733 0.3831261 0.3818593

network.8.weight f4 [1, 32]
00000000: 7d2d f6bd dcd6 013d 2c56 c0bd 09cb b63d
00000010: 6f1d 193e e55d fc3d 1ea9 8a3d e26a 2ebb
00000020: 36a2 e0bd 048b cd3c 3fce 78bd 1aee 1bbe
00000030: 4ef0 57bc d358 043d 1869 67bd e8ca 6abd
00000040: d7d1 94bd 5aca 343e 0070 cebd c799 31bd
00000050: 28ca d3bc a15a 36bd 8986 84ba 0c6d 6ebd
00000060: 1ce0 373e afa5 59bd 1de3 15bc 9aed 113e
00000070: 066b 103e 180c a7bc a45a 753d 759f d1bd
-0.12020395 0.031699046 -0.09391436 0.08925445 0.14952634 0.123225965 0.06770538 -0.0026614
-0.10968439 0.025090702 -0.060743567 -0.15227547 -0.013179852 0.032311272 -0.05649671 -0.057322413
-0.07266586 0.17655316 -0.10079956 -0.043359544 -0.025853232 -0.044520024 -0.0010110895 -0.058209464
0.17956585 -0.053136524 -0.009148386 0.14250794 0.14103326 -0.020391509 0.059900895 -0.10235492
