output/random_forest_model.pth (torch, 18939 bytes, 13 tensors)

network.0.weight f4 [64, 10]
0	0x3e6e2588	0.23256505
1	0x3e3d5dd6	0.18492827
2	0xbe191fa2	-0.14953473
3	0x3df728a2	0.12068297
4	0xbe167915	-0.14694627
5	0xbe94eb49	-0.29085758
6	0x3e83de72	0.2575565
7	0xbe7116be	-0.23543832
8	0xbe49d8f3	-0.19711666
9	0x3ca2c483	0.019869095
10	0x3d83ab03	0.06429102
11	0xbd8dd7db	-0.06925937
12	0xbd06a8f0	-0.032875955
13	0xbe5e09ff	-0.216835
14	0xbe201c1b	-0.15635721
15	0x3e3b202f	0.18273996
16	0xbd70d130	-0.058793247
17	0xbe8263db	-0.2546681
18	0xbe03751a	-0.1283764
19	0x3e2ba19f	0.16760872
20	0x3e285870	0.16439986
21	0x3deb927e	0.115025505
22	0x3e40bdab	0.18822353
23	0xbb578602	-0.0032886271
24	0x3e905221	0.2818766
25	0xbe9108ef	-0.28327128
26	0x3d223fdd	0.039611686
27	0x3c43b481	0.011944891
28	0xbe02afa4	-0.12762314
29	0x3df5e5f9	0.120067544
30	0x3e1cab5c	0.15299743
31	0xbe6c3276	-0.23066124
32	0xbd4e4295	-0.050356466
33	0xbe293a06	-0.1652604
34	0xbdf7b744	-0.12095502
35	0xbdbec69c	-0.093152255
36	0x3e4e981e	0.20175216
37	0x3e12f9f0	0.14353156
38	0xbe9a7851	-0.3016992
39	0x3dab2db2	0.08358325
40	0xbe6d50f5	-0.23175414
41	0x3e0f6e61	0.1400695
42	0x3e5d2d12	0.21599224
43	0x3e65fc78	0.2245959
44	0x3ddca297	0.10773199
45	0x3e0f2753	0.13979845
46	0x3e90eefa	0.28307325
47	0x3e1a6821	0.15078785
48	0x3e97c0db	0.29639325
49	0x3d8f7ae1	0.07005859
50	0x3da58dfb	0.08083721
51	0x3e91e2c2	0.28493315
52	0x3e844eeb	0.2584146
53	0x3ceff241	0.02929032
54	0x3e2f9b03	0.17148976
55	0xbe9094f8	-0.28238654
56	0xbd080bae	-0.033214264
57	0x3de3d587	0.111247115
58	0xbe1ba3b1	-0.15199162
59	0xbe98fba0	-0.29879475
60	0x3e49ebd5	0.19718869
61	0x3e7b0ea4	0.24517304
62	0xbdfb24f6	-0.12262909
63	0x3e094213	0.13404112
64	0xbe319117	-0.17340504
65	0xbe657860	-0.224092
66	0x3e716e26	0.23577175
67	0xbe7d8a82	-0.24759868
68	0x3dc6d0d5	0.097078
69	0xbe795777	-0.24349771
70	0xbd3f0884	-0.04663898
71	0x3e7a4f37	0.2444428
72	0x3d2d7ba4	0.04235424
73	0x3e88560e	0.26628155
74	0x3cd3f0db	0.025871685
75	0x3dfe8d81	0.124293335
76	0x3e58caca	0.21171108
77	0x3e2c824f	0.16846584
78	0xbd4f189c	-0.05056058
79	0xbe6dd98f	-0.23227523
80	0xbe10bd03	-0.14134602
81	0xbe8b6791	-0.27227452
82	0xbe735067	-0.2376114
83	0x3dd43e55	0.103634514
84	0xbe6815ca	-0.22664562
85	0x3d65dd47	0.05611923
86	0xbe41438a	-0.1887342
87	0xbe6e29f2	-0.23258188
88	0x3e8fda0d	0.28096047
89	0x3dafda28	0.08586532
90	0x3e5aad24	0.2135511
91	0x3e92f19f	0.28699967
92	0x3e09173a	0.13387766
93	0xbde473af	-0.111548774
94	0x3e6b8404	0.22999579
95	0xbe9f09c2	-0.31062132
96	0xbe1d15b3	-0.15340309
97	0xbe3e2e8f	-0.18572448
98	0x3cac71b7	0.021050317
99	0xbe1331cc	-0.14374465
100	0xbe32f5b9	-0.17476548
101	0xbe762a9c	-0.24039692
102	0xbbb64aa2	-0.005563096
103	0x3e6cbf29	0.23119797
104	0x3ccd53c2	0.025064353
105	0x3e474116	0.19458422
106	0xbe193443	-0.14961343
107	0x3e09da21	0.13462116
108	0x3da377c5	0.079818286
109	0xbe957221	-0.29188636
110	0xbdef70cc	-0.11691436
111	0x3e658bcc	0.2241661
112	0x3e98a3bd	0.29812422
113	0xbe3c1080	-0.18365669
114	0x3e666664	0.22499996
115	0x3df093a9	0.11746914
116	0x3e909360	0.28237438
117	0xbe8fe812	-0.28106743
118	0xbe392a04	-0.18082434
119	0xbe8c912a	-0.274545
120	0x3e407ba8	0.18797171
121	0x3d460153	0.048341107
122	0xbe928358	-0.28615832
123	0x3e4797c7	0.19491492
124	0xbddf1426	-0.10892515
125	0x3e0a896d	0.13528986
126	0x3e8f889f	0.2803392
127	0x39dbf0be	0.00041950302
128	0x3e9d0831	0.30670312
129	0xbea2483d	-0.31695738
130	0xbde410e3	-0.111360334
131	0x3e19b4ef	0.15010427
132	0x3e977384	0.2958032
133	0x3c83768f	0.016047744
134	0x3dc49437	0.09598582
135	0xbdea1a66	-0.11430816
136	0x3dd09b79	0.10185904
137	0xbe37ea98	-0.17960584
138	0xbd24694c	-0.04013948
139	0xbdce82b5	-0.10083524
140	0xbe18e956	-0.1493276
141	0x3e95b9a7	0.29243204
142	0x3dd80663	0.10548093
143	0xbdb5ee9f	-0.08883404
144	0x3e3ba2a8	0.18323767
145	0x3bc292b7	0.0059379
146	0xbd3848da	-0.04499135
147	0xbe4403e6	-0.19142112
148	0xbe21688b	-0.15762536
149	0x3de65c79	0.112481065
150	0xbdd27e07	-0.10277944
151	0xbdd02ea3	-0.10165145
152	0x3ea0abaf	0.31380984
153	0x3e7cecab	0.24699657
154	0xbd3f2ae9	-0.04667178
155	0x3e884f55	0.26623026
156	0xbe52affb	-0.20574944
157	0x3c800769	0.015628533
158	0xbe09d741	-0.13461019
159	0x3e8d13ce	0.27554172
160	0xbe0cf118	-0.13763845
161	0x3db89808	0.09013373
162	0xbe31e73b	-0.17373364
163	0xbbfce142	-0.0077172825
164	0x3ea11d04	0.3146745
165	0xbe2ee342	-0.1707888
166	0x3896efd8	7.197232e-05
167	0xbdb3b659	-0.087750144
168	0x3e0546f4	0.13015348
169	0xbe33808e	-0.17529508
170	0x3d710217	0.058839884
171	0x3e3413fd	0.1758575
172	0x3e0276b3	0.12740593
173	0xbe8de17a	-0.27711087
174	0x3e803a6b	0.2504457
175	0x3cb85756	0.022502583
176	0x3e3fc2e2	0.18726686
177	0xbc8960a3	-0.016769713
178	0xbe9d122a	-0.3067792
179	0xbe944bbc	-0.2896403
180	0x3db51bef	0.088432185
181	0x3e2c9f01	0.1685753
182	0x3cf4d066	0.029884528
183	0xbdb7573d	-0.08952186
184	0x3e2387ec	0.15969819
185	0x3deb49d5	0.11488692
186	0x3e91c60f	0.2847142
187	0xbe338922	-0.17532781
188	0xbe8cfdc9	-0.27537373
189	0x3dacfa24	0.08446148
190	0xbdb958ec	-0.090501636
191	0xbea2d6c1	-0.3180447
192	0xbe95a955	-0.29230753
193	0xbe0e6f92	-0.13909748
194	0x3e6e4887	0.23269854
195	0x3dff5356	0.12467067
196	0xbe272092	-0.16321018
197	0xbdab6dc2	-0.08370544
198	0x3d57032a	0.05249325
199	0xbdb9224f	-0.09039747
200	0xbea4dbfd	-0.32199088
201	0x3d287544	0.04112746
202	0xbe178768	-0.14797747
203	0x3e048a97	0.12943493
204	0x3da57992	0.08079828
205	0x3e252a1b	0.16129343
206	0x3d39abe2	0.045329936
207	0x3e5f7998	0.21823728
208	0xbe920c0c	-0.28524816
209	0x3e5ce88a	0.21573082
210	0x3e641863	0.22274928
211	0xbe1a3a7b	-0.15061371
212	0xbe71e16b	-0.23621146
213	0xbdd7467c	-0.10511491
214	0xbe1f680d	-0.15567036
215	0x3e25b696	0.16182932
216	0x3ddc8b67	0.107687764
217	0xbe30b93e	-0.17258164
218	0xbe19a8aa	-0.15005746
219	0xbe3aa0f4	-0.18225461
220	0xbe8626cb	-0.26201472
221	0xbe40593f	-0.18784045
222	0x3c2dc23d	0.010605392
223	0x3e7e804c	0.24853629
224	0x3e90dcc2	0.28293425
225	0xbe0e38e1	-0.13888885
226	0xbe5c9bac	-0.21543759
227	0x3e653c10	0.22386193
228	0xb9ac87f3	-0.00032907687
229	0x3e2048b5	0.15652736
230	0xbe7b2e2a	-0.24529329
231	0xbd53b780	-0.05168867
232	0x3e43738d	0.19087048
233	0xbe208d2e	-0.15678856
234	0xbe761308	-0.24030697
235	0xbe947b49	-0.2900031
236	0x3d8f0e28	0.06985122
237	0x3cc66732	0.02421913
238	0xbe5a0a21	-0.21292926
239	0x3d91f12c	0.07126078
240	0x3e1f9905	0.15585716
241	0xbdbd08d3	-0.09230199
242	0xbe282233	-0.16419296
243	0x3d78ab25	0.06071009
244	0x3e4b1668	0.19832766
245	0xbe64ec66	-0.22355804
246	0x3e0eeb0e	0.13956854
247	0x3e9021a1	0.28150657
248	0xbe835b8d	-0.25655785
249	0xbe91dca9	-0.28488663
250	0xbea553de	-0.32290548
251	0xbcbf2f03	-0.023337847
252	0xbe197054	-0.14984256
253	0xbd25ea36	-0.040506564
254	0x3e2e7299	0.17035903
255	0xbe9a9166	-0.30189055

network.0.bias f4 [64]
0	0xbe819216	-0.25306767
1	0x3e8b5a78	0.2721746
2	0xbea11111	-0.31458333
3	0xbddbc995	-0.10731808
4	0xbe44fd6b	-0.19237296
5	0x3d9b2a0e	0.07576381
6	0xbe8ea298	-0.27858424
7	0xbe7dc5a6	-0.24782428
8	0x3e6c0b0d	0.2305109
9	0xbe4f7c09	-0.2026216
10	0xbe98d606	-0.29850787
11	0x3e8fbbe8	0.2807305
12	0xbe1c2533	-0.15248565
13	0xbd87c0e4	-0.06628588
14	0x3e84769e	0.25871748
15	0x3d40865f	0.047003146
16	0xbe5adb1e	-0.21372649
17	0xbe01291c	-0.12613338
18	0x3e099fde	0.1343989
19	0xbdf3a4d7	-0.11896675
20	0xbda949bc	-0.08266017
21	0x3d17a46d	0.037022043
22	0x3deb8f31	0.11501921
23	0xba9c36a0	-0.0011918135
24	0xbdf645cb	-0.12025031
25	0x3d938a83	0.072041534
26	0x3e6dc909	0.2322122
27	0xbe8998a3	-0.26874265
28	0xbe856200	-0.2605133
29	0x3e0435fa	0.12911215
30	0x3e758105	0.23974998
31	0xbe6f47ad	-0.23367186
32	0xbe083022	-0.13299611
33	0xbcb9f354	-0.022699036
34	0x3e03c64e	0.12868616
35	0xbe08c31a	-0.13355675
36	0x3def50c3	0.11685326
37	0xbe5e1bbd	-0.21690269
38	0xbd9978f3	-0.07493772
39	0x3e33fe33	0.17577438
40	0xbe48e273	-0.19617634
41	0xbd541c0f	-0.05178457
42	0xbe920bed	-0.28524724
43	0xbd172ce5	-0.03690805
44	0x3df204c9	0.11817319
45	0xbdc86355	-0.09784571
46	0x3c3cdadb	0.011526789
47	0x3d8de856	0.0692908
48	0x3d88fc9c	0.066888064
49	0xbe9fece6	-0.31235427
50	0xbea11c97	-0.31467125
51	0x3e9d91b2	0.3077522
52	0x39a2098e	0.00030906167
53	0xbea02882	-0.31280905
54	0x3e653db4	0.22386819
55	0x3e96d4fb	0.29459366
56	0x3d953465	0.07285384
57	0x3e844758	0.2583568
58	0x3e425763	0.18978648
59	0xbe416b22	-0.18888524
60	0x3e91b909	0.28461483
61	0xbe881586	-0.2657892
62	0xbe0e2853	-0.1388257
63	0xbe3f31ac	-0.18671292

network.1.weight f4 [64]
0	0x3f800353	1.0001014
1	0x3f7ea106	0.9946445
2	0x3f7e8ca2	0.9943334
3	0x3f803f85	1.0019385
4	0x3f80ba1b	1.0056795
5	0x3f803681	1.0016633
6	0x3f7e60c1	0.99366385
7	0x3f7db829	0.9910913
8	0x3f8091ca	1.0044491
9	0x3f7f7664	0.99790025
10	0x3f80b3a8	1.0054827
11	0x3f80e4b6	1.0069797
12	0x3f7e63fb	0.9937131
13	0x3f7f6a7b	0.9977185
14	0x3f801362	1.0005915
15	0x3f7deceb	0.99189633
16	0x3f80a934	1.0051637
17	0x3f80cde8	1.0062838
18	0x3f7fc080	0.99903107
19	0x3f8093fe	1.0045164
20	0x3f80e5a4	1.0070081
21	0x3f7f375e	0.9969386
22	0x3f803e41	1.0018998
23	0x3f7ed386	0.9954151
24	0x3f7fdd59	0.99947125
25	0x3f7f0488	0.9961629
26	0x3f8108da	1.0080826
27	0x3f80cc43	1.0062336
28	0x3f7e23b8	0.9927325
29	0x3f7e1a31	0.99258715
30	0x3f7f002e	0.9960965
31	0x3f80d781	1.0065767
32	0x3f80724d	1.0034882
33	0x3f801612	1.0006735
34	0x3f810ee3	1.0082668
35	0x3f810152	1.0078528
36	0x3f808f63	1.0043758
37	0x3f7f26a0	0.9966831
38	0x3f80bab5	1.0056978
39	0x3f7ded96	0.9919065
40	0x3f7e8bac	0.9943187
41	0x3f806748	1.0031519
42	0x3f80fc4e	1.0076997
43	0x3f80764b	1.00361
44	0x3f80d294	1.0064263
45	0x3f80ca02	1.0061648
46	0x3f7ee713	0.9957134
47	0x3f7f6674	0.99765706
48	0x3f7f642c	0.99762225
49	0x3f7ea9aa	0.99477637
50	0x3f808925	1.0041853
51	0x3f80721b	1.0034822
52	0x3f7eab86	0.99480474
53	0x3f80c602	1.0060427
54	0x3f7fa06e	0.9985417
55	0x3f7ead4b	0.99483174
56	0x3f7f6e72	0.997779
57	0x3f7e2f04	0.9929049
58	0x3f7f824c	0.9980819
59	0x3f7ed106	0.99537694
60	0x3f7e9b76	0.99455965
61	0x3f804e56	1.0023906
62	0x3f80b2bc	1.0054545
63	0x3f811c06	1.0086677

network.1.bias f4 [64]
0	0x3afb8fbe	0.0019192619
1	0xbb616c5f	-0.003439687
2	0xbc01bcf8	-0.007918589
3	0x3bdd84fb	0.0067602373
4	0x3b74d21a	0.0037356676
5	0xbab7e260	-0.0014029257
6	0xbc0836f2	-0.008313881
7	0xbb3e8662	-0.0029071798
8	0x3b8b37c7	0.0042485925
9	0xbae2bce3	-0.0017298724
10	0xbc0a4de0	-0.008441418
11	0xbb77a446	-0.0037787124
12	0xbbb8a385	-0.0056347274
13	0x3a4e6aab	0.0007874171
14	0x3bddfe96	0.006774734
15	0x3c0abf5d	0.008468476
16	0x3be201a3	0.006897168
17	0x3b253efa	0.002521454
18	0x3b51ef3a	0.003203346
19	0x3ba66921	0.0050784503
20	0x3bb50d3b	0.005525259
21	0xbc1b8d00	-0.009494066
22	0x3c0ba383	0.008522871
23	0xbbceb89f	-0.0063086296
24	0x3c1bb20d	0.0095029
25	0xbbee3e98	-0.0072706454
26	0x3ad2b1eb	0.0016074752
27	0x3bd12ddf	0.006383642
28	0xbba28a55	-0.004960338
29	0xbbd560e6	-0.0065117953
30	0xbb94bbfe	-0.004539012
31	0x3bcd6960	0.006268665
32	0x3b38a266	0.002817297
33	0x3bc2ba3e	0.005942612
34	0x3c02b566	0.007977819
35	0x3c1cdcf1	0.009574161
36	0xbaa608d7	-0.0012667429
37	0xbbf27c46	-0.0074000685
38	0xbafa6400	-0.0019103289
39	0x3bd12bdc	0.0063834023
40	0xbba1e1b5	-0.0049402365
41	0x3bc89ae5	0.0061219805
42	0xbb85e430	-0.00408604
43	0x3be0aecc	0.006856775
44	0x3c059ce8	0.008155085
45	0x3bf0fe8a	0.007354562
46	0xbbceac82	-0.0063071856
47	0x3bfab28e	0.00765068
48	0x3b3b51f7	0.002858279
49	0xbbcec08b	-0.006309574
50	0x3b462225	0.0030232754
51	0x3be228e8	0.006901849
52	0xba83753e	-0.0010029448
53	0x3bb0ae91	0.0053919037
54	0xbbee04bc	-0.007263748
55	0xbba29c93	-0.0049625128
56	0x3c106adc	0.00881454
57	0xbc158669	-0.009126284
58	0x39b4e076	0.00034499512
59	0xbb63528b	-0.003468665
60	0xbb689ab0	-0.0035492592
61	0xbaa827e3	-0.001282927
62	0x3b3aded4	0.0028514164
63	0x3bda020d	0.0066530765

network.1.running_mean f4 [64]
0	0xc2158c86	-37.38723
1	0xc2275a9d	-41.83849
2	0x4291087c	72.51657
3	0xc1fc53bf	-31.540892
4	0x41ebf453	29.494299
5	0x42320cb6	44.512413
6	0xc23a2137	-46.532436
7	0x40ec2e7a	7.3806734
8	0xc26f0afb	-59.760723
9	0x4271f2b3	60.48701
10	0x40a694fd	5.205687
11	0x4267172e	57.772636
12	0xc1eb2b6f	-29.396208
13	0x41c183d8	24.189377
14	0x423bbcc6	46.93435
15	0xc156373b	-13.388484
16	0x42a23a64	81.114044
17	0x42845a6f	66.17663
18	0x422765e4	41.849503
19	0x427558e5	61.33681
20	0x41b23030	22.27353
21	0xc21e95bf	-39.646236
22	0x4291c20d	72.879005
23	0xc27ba1bf	-62.907955
24	0x424a494f	50.57159
25	0x42354672	45.318794
26	0x42013783	32.30421
27	0x41e1378b	28.15212
28	0xc2740b68	-61.01114
29	0xc295f569	-74.97932
30	0x4230c438	44.19162
31	0x4191a423	18.205145
32	0xc27d7905	-63.368183
33	0x423af63b	46.74046
34	0x42972e1f	75.59008
35	0xc247705a	-49.85972
36	0x429255eb	73.16781
37	0xc28eb1c9	-71.34724
38	0xc202d67d	-32.70946
39	0x405357bb	3.3022296
40	0x4256ff5f	53.749386
41	0xc21002c1	-36.00269
42	0x42914611	72.63685
43	0x41453918	12.326439
44	0x412ab630	10.669479
45	0xc2715d47	-60.34109
46	0x428372ba	65.724075
47	0xc204c01e	-33.187614
48	0x428dbe7f	70.87206
49	0xc22cb794	-43.179276
50	0xc29d6abf	-78.70849
51	0xc0c267c5	-6.075167
52	0xc23dc474	-47.44185
53	0xc25ae4f5	-54.72359
54	0x424154b5	48.33272
55	0x40ecd982	7.4015512
56	0x40eab72b	7.3348594
57	0x41ca2369	25.26729
58	0x42246429	41.097813
59	0x41b8214f	23.016264
60	0x429772f4	75.72452
61	0x420ddc9d	35.465443
62	0x404a3bc1	3.159897
63	0xc22217bb	-40.523174

network.1.running_var f4 [64]
0	0x44318849	710.12946
1	0x4460c5dc	899.09155
2	0x45298d84	2712.8447
3	0x44004e2e	513.22156
4	0x43dc1599	440.16873
5	0x447ecf30	1019.2373
6	0x44899974	1100.7954
7	0x41e70f86	28.88258
8	0x44e56f31	1835.4747
9	0x44edb6e9	1901.716
10	0x41817293	16.180944
11	0x44d6804b	1716.0092
12	0x43decd59	445.60428
13	0x439852bf	304.64645
14	0x448d71f3	1131.5609
15	0x42b9b575	92.85441
16	0x45546972	3398.5903
17	0x450d81ce	2264.1128
18	0x44607042	897.754
19	0x44f3c40e	1950.1267
20	0x437de668	253.90002
21	0x444852e5	801.2952
22	0x4529c9ea	2716.6196
23	0x44fe3add	2033.8395
24	0x44a45e30	1314.9434
25	0x44836288	1051.0791
26	0x440564c6	533.5746
27	0x43cef1ee	413.89008
28	0x44ec0b1d	1888.3473
29	0x4534ea76	2894.6538
30	0x447ba248	1006.53564
31	0x432d6854	173.40753
32	0x4500751e	2055.3198
33	0x448c0e95	1120.4557
34	0x4537680f	2934.5037
35	0x449fe3a6	1279.114
36	0x452c4d1f	2756.82
37	0x4523a368	2618.213
38	0x440a7f80	553.9922
39	0x40ba057e	5.8131704
40	0x44b9d827	1486.7548
41	0x44278692	670.10266
42	0x452a2aff	2722.6873
43	0x429993e4	76.78885
44	0x4268eaa0	58.229126
45	0x44e878b1	1859.7716
46	0x450a9177	2217.0916
47	0x440d004a	564.0045
48	0x451fdfdd	2557.9915
49	0x446a5ccf	937.45013
50	0x4544f1d1	3151.1135
51	0x41a5fb4d	20.747705
52	0x448f5202	1146.5627
53	0x44bed9f9	1526.8116
54	0x4494ffad	1191.9899
55	0x41da6af9	27.302233
56	0x41e3937d	28.447016
57	0x439eaaea	317.33527
58	0x4458919e	866.27527
59	0x438bd913	279.6959
60	0x453773ba	2935.233
61	0x442557de	661.3729
62	0x40bd57b8	5.916958
63	0x445402c9	848.0435

network.4.weight f4 [32, 64]
0	0xbda4c62e	-0.08045612
1	0xbe01cab8	-0.12674987
2	0xbd8f7147	-0.07004028
3	0x3dbb1101	0.091341026
4	0x3c5dc2a4	0.0135351755
5	0x3da47e9f	0.080319636
6	0x3dc7b319	0.09750957
7	0x3d832110	0.064027905
8	0x3db41d7f	0.087946884
9	0xbd2980b3	-0.041382503
10	0xbd0dc11e	-0.034608
11	0x3ce77947	0.028256072
12	0x3de3edc5	0.11129335
13	0x3dd77622	0.10520579
14	0x3dc8bb34	0.09801331
15	0x3d16859a	0.036748506
16	0x3cf5c225	0.029999802
17	0xbb4d1af2	-0.0031296578
18	0x3dda6ab3	0.106648825
19	0x3dedf662	0.116192594
20	0xbdb1da57	-0.08684223
21	0x3d34718d	0.044053603
22	0xbd65018b	-0.055909675
23	0x3a3c185c	0.00071752607
24	0x3df77b76	0.12084095
25	0xbc13143e	-0.008976994
26	0x3cb90198	0.022583768
27	0xbda846a2	-0.08216597
28	0x3d7352fd	0.059405316
29	0x3dcf573d	0.10124061
30	0xbd36e31d	-0.044650186
31	0x3ccfd203	0.025368696
32	0xbd8d0c31	-0.06887091
33	0xbd588b8a	-0.05286745
34	0xbdb91b5a	-0.0903842
35	0x3dc4b8a4	0.0960553
36	0xbd383f6e	-0.044982366
37	0xbcf02ac0	-0.02931726
38	0x3d83879a	0.06422348
39	0x3dbc739f	0.092017405
40	0x3d6f0d47	0.05836227
41	0xbc00e098	-0.007866047
42	0xbc870590	-0.016482145
43	0x3d104a90	0.03522736
44	0xbd966b9b	-0.07344743
45	0x3db9e76d	0.09077344
46	0xbdc18400	-0.09449005
47	0xbde75aec	-0.11296639
48	0xbdad6aae	-0.08467613
49	0xbde7b497	-0.11313742
50	0x3ba10919	0.0049144146
51	0x3da6f012	0.081512585
52	0x3b1e0408	0.002411129
53	0x3de30021	0.11084009
54	0xbd7ef2ff	-0.062243458
55	0xbdff1539	-0.1245522
56	0xbd41cbb9	-0.047313426
57	0xbddba8a0	-0.10725522
58	0xbd421260	-0.047380805
59	0xbdfdf9d0	-0.124011636
60	0xbd2432cb	-0.040087502
61	0xbd84add7	-0.0647847
62	0x3d96da9d	0.07365916
63	0x3d37cab1	0.044871036
64	0xbd7ff046	-0.062485002
65	0xbd75dbff	-0.060024258
66	0xbc96c2eb	-0.018403491
67	0xbda32520	-0.079660654
68	0xbdadc3ec	-0.08484635
69	0xba931b35	-0.0011223318
70	0xbd28ae9b	-0.04118214
71	0xbd8a6469	-0.06757433
72	0xbda93896	-0.08262746
73	0xbd37bfd4	-0.044860676
74	0xbd576dc4	-0.052594915
75	0x3d20330b	0.03911118
76	0xbdc8334e	-0.097754106
77	0xbb699256	-0.0035640202
78	0x3d959415	0.07303635
79	0x3d5ef33b	0.05443118
80	0xbd078800	-0.033088684
81	0x3dabc52f	0.08387219
82	0x3d9b212d	0.07574687
83	0x3dbed9d0	0.09318888
84	0x3da9e8af	0.08296334
85	0x3d6e6fea	0.0582122
86	0xbd9ad1d5	-0.075595535
87	0x3dd6bcf1	0.104852565
88	0x3dc39aa0	0.09550977
89	0xbdd73e1c	-0.10509893
90	0xbde16aa8	-0.11006671
91	0xbd47f873	-0.048820924
92	0xbdf2c33d	-0.11853645
93	0xbcab728b	-0.020928642
94	0x3d477f30	0.04870528
95	0x3c407543	0.011746707
96	0xbdaec803	-0.08534243
97	0xbd82e966	-0.063921735
98	0x3d8c21af	0.06842362
99	0xbd792261	-0.060823802
100	0x3ba60a96	0.00506718
101	0x3dd2f33b	0.10300299
102	0xbd94e854	-0.072708756
103	0xbd83f484	-0.06443122
104	0x3ddf574c	0.109053224
105	0xbd2b4ba5	-0.041820187
106	0xbd043386	-0.0322757
107	0x3dddcdb5	0.10830251
108	0xbd85f9a8	-0.06541759
109	0xbd2eca2a	-0.042673267
110	0x3da0af5c	0.07845947
111	0x3cee2138	0.029068574
112	0x3d9f86c8	0.07789379
113	0xbd4805bc	-0.048833594
114	0xbca01eed	-0.019545997
115	0xbddc02da	-0.107427314
116	0xbd4800b5	-0.0488288
117	0x3da76cda	0.08175059
118	0x3c9d1207	0.019173635
119	0xbdd80b54	-0.10549036
120	0xbd9fec85	-0.078087844
121	0xbc977eb5	-0.018493036
122	0x3d754365	0.059878726
123	0xbd048269	-0.03235093
124	0x3dc039cc	0.09386024
125	0x3ddf27cf	0.10896265
126	0x3cf9541c	0.030435614
127	0xbdf1ca86	-0.118062064
128	0xbd8c8583	-0.06861403
129	0xbd123b21	-0.03570092
130	0x3d1e1645	0.038595457
131	0xbdbb33a8	-0.09140712
132	0x3a58845e	0.00082594703
133	0xbdc2f54a	-0.095194414
134	0xbb5f0b96	-0.0034034005
135	0x3d14be97	0.036314573
136	0xbde58bae	-0.112082824
137	0x3d4cac12	0.049968787
138	0xbde273c2	-0.11057235
139	0xbda1ce6f	-0.07900702
140	0xbdc9c419	-0.09851856
141	0xbd50a130	-0.05093497
142	0xbdf2ba59	-0.11851949
143	0x3d9d5942	0.0768304
144	0x3cd5cf18	0.026099727
145	0xbdce680a	-0.100784376
146	0xbdc37174	-0.09543124
147	0xbd0ce0ca	-0.034394063
148	0x3cd12c46	0.025533807
149	0xbd929ba6	-0.07158594
150	0xbd7206d9	-0.05908856
151	0xbdd405e7	-0.10352688
152	0x3dce71fc	0.100803345
153	0x3d04f203	0.032457363
154	0xbd30b353	-0.043139767
155	0xbdb9f60e	-0.09080134
156	0xbd8189d9	-0.063251205
157	0xbdecb1a0	-0.11557317
158	0x3d1874ed	0.037220884
159	0x3def351c	0.11680052
160	0x3dc4a086	0.0960093
161	0x3dc6c71a	0.09705944
162	0xbde8d9fd	-0.11369703
163	0xbda20228	-0.079105675
164	0x3d02c7ce	0.03192883
165	0xbde52343	-0.11188366
166	0xbdf8b6fa	-0.12144275
167	0x3c7b55a5	0.0153402435
168	0x3cc23cea	0.023710687
169	0xbdcb0ab5	-0.099141516
170	0xbd13fdb2	-0.036130615
171	0xbdf509a1	-0.11964727
172	0x3d4cc61f	0.04999363
173	0x3d4a7485	0.049427528
174	0x3b160661	0.0022891986
175	0x3d45b48b	0.048267882
176	0x3d58c6ca	0.052923955
177	0xbd72bef4	-0.05926414
178	0x3b2bf144	0.0026236335
179	0xbdc089b0	-0.09401262
180	0x3dd6f991	0.1049682
181	0x3d5440a8	0.051819474
182	0x3bd88f7f	0.006608903
183	0x3de3faff	0.11131858
184	0x3c77d7ac	0.015127104
185	0xbcebf4d7	-0.028803272
186	0x3dae6700	0.085157394
187	0xbd8f67c7	-0.07002216
188	0x3d2cb9d4	0.042169407
189	0x3c93e559	0.018053697
190	0xbdf6abc4	-0.120444804
191	0xbcd827ad	-0.026386106
192	0xbd20a178	-0.03921649
193	0x3dc1fbe6	0.09471874
194	0x3d47d7da	0.048789836
195	0x3da5e867	0.08100968
196	0x3cb9d6b5	0.022685388
197	0xbdcb3715	-0.099226154
198	0xbde68860	-0.1125648
199	0xbcc08e0b	-0.023505231
200	0x3dc4fd1f	0.096185915
201	0x3da4afc9	0.08041341
202	0x3d16421e	0.036684148
203	0x3d6f83e6	0.058475398
204	0xbd61bff6	-0.05511471
205	0x3d94c231	0.072636016
206	0x3dd91a33	0.106007
207	0xbc365870	-0.011129484
208	0x3ddbee36	0.107387945
209	0xbd91b020	-0.07113671
210	0xbc8af983	-0.01696468
211	0x3dd37cb5	0.1032652
212	0x3ccb4463	0.024812883
213	0xbdc241f7	-0.09485238
214	0x3d0dde23	0.034635674
215	0x3d6b8f40	0.05750966
216	0x3dff5126	0.1246665
217	0xbd88b0c5	-0.06674341
218	0x3cf22d5e	0.029562648
219	0xbcd24cc1	-0.025671365
220	0xbe0207c7	-0.1269828
221	0xbdb0a9b3	-0.086261176
222	0xbceaa2a4	-0.028642006
223	0x3d781d3a	0.060574748
224	0x3dc76dee	0.09737764
225	0xbd2edd30	-0.04269141
226	0x3d312b7f	0.04325437
227	0x3c8da3f5	0.017290095
228	0x3dda33e8	0.106544316
229	0xbdb5cb6e	-0.08876692
230	0xbd3fac00	-0.04679489
231	0xbcdabcac	-0.026701294
232	0xbcc209c0	-0.02368629
233	0x3d8524b3	0.065011404
234	0xbde31666	-0.110882565
235	0xbd3fcd84	-0.046826854
236	0x3df24fcd	0.11831627
237	0xbd030ccd	-0.03199463
238	0xbdc0024d	-0.09375439
239	0x3bf8b2e5	0.0075896853
240	0x3d69043c	0.056888804
241	0x3cae0c9b	0.021246245
242	0x3d641caa	0.0556914
243	0xbdbfa7ae	-0.09358154
244	0x3d09addc	0.03361307
245	0x3db92221	0.09039713
246	0x3df0a61e	0.11750434
247	0xbd24da71	-0.040247384
248	0xbd0c72a5	-0.03428902
249	0x3c8d22a7	0.017228438
250	0x3d770b4d	0.06031351
251	0xbd6dd208	-0.05806163
252	0xbd835ef6	-0.06414597
253	0x3d9d9c8a	0.07695873
254	0xbd4f3cfe	-0.050595276
255	0x3d92b19b	0.07162782

network.4.bias f4 [32]
0	0xbda673b8	-0.0812754
1	0x361b90c6	2.318107e-06
2	0xbce294c5	-0.02765883
3	0xbdaa278d	-0.08308325
4	0xbcd31043	-0.02576459
5	0xbde1e05a	-0.1102912
6	0x3d0af10a	0.03392128
7	0x3d47be95	0.048765738
8	0xbc63e0bb	-0.01390856
9	0x3db06d33	0.08614578
10	0xbdab0d3d	-0.083521344
11	0xbd9dfa29	-0.0771373
12	0xbcfeec8c	-0.031118654
13	0x3d1c8d25	0.038220543
14	0xbd23133e	-0.039813273
15	0xbd26f3d1	-0.040759865
16	0xbcbcc85c	-0.023044758
17	0x3d6fe51e	0.058568113
18	0x3d940c20	0.07228875
19	0x3c823132	0.015892599
20	0x3d7f8de2	0.06239117
21	0x3dd9635a	0.10614653
22	0xbdddfaf6	-0.108388826
23	0xbcc07cb1	-0.023496957
24	0x3dcc676e	0.09980665
25	0x3d8dcc90	0.06923783
26	0x3bd78a3a	0.006577757
27	0x3dc05606	0.09391408
28	0xbca44e51	-0.020056875
29	0xbd1c2105	-0.038117427
30	0x3d3b5216	0.04573258
31	0xbdade2d7	-0.08490532

network.5.weight f4 [32]
0	0x3f7daa06	0.9908756
1	0x3f814572	1.0099318
2	0x3f814784	1.009995
3	0x3f7d7368	0.9900422
4	0x3f8144e9	1.0099155
5	0x3f81477a	1.0099938
6	0x3f813f31	1.009741
7	0x3f814623	1.0099529
8	0x3f7d9518	0.99055624
9	0x3f8128ed	1.0090615
10	0x3f7d7148	0.9900098
11	0x3f7d70b8	0.9900012
12	0x3f7dac16	0.9909071
13	0x3f7d7ee3	0.9902174
14	0x3f814099	1.0097839
15	0x3f8144ab	1.0099081
16	0x3f8125b0	1.0089626
17	0x3f81412a	1.0098011
18	0x3f813b31	1.0096189
19	0x3f813fa1	1.0097543
20	0x3f7d9dc0	0.9906883
21	0x3f814763	1.009991
22	0x3f814885	1.0100256
23	0x3f7d9bde	0.9906596
24	0x3f8137e7	1.0095185
25	0x3f81400b	1.0097669
26	0x3f7d8a62	0.9903928
27	0x3f812f21	1.0092508
28	0x3f7d715f	0.99001116
29	0x3f7d74d2	0.9900638
30	0x3f813e46	1.0097129
31	0x3f8146d9	1.0099746

network.5.bias f4 [32]
0	0xbc1a23e6	-0.009407973
1	0x3c243b9a	0.010023976
2	0x3c23a574	0.009988178
3	0xbc22b9fc	-0.009932037
4	0x3c24e4de	0.010064332
5	0x3c252c12	0.010081308
6	0x3c212b8a	0.009837041
7	0x3c2382f0	0.009979948
8	0xbc1ba302	-0.009499313
9	0x3c1974ef	0.009366258
10	0xbc23855d	-0.009980527
11	0xbc23a9dc	-0.009989228
12	0xbc17efaa	-0.009273449
13	0xbc1f8b6c	-0.009737831
14	0x3c20eb57	0.009821734
15	0x3c25571c	0.010091569
16	0x3c1c1528	0.009526528
17	0x3c203ac6	0.009779638
18	0x3c205184	0.00978506
19	0x3c231ac2	0.00995511
20	0xbc1c9eab	-0.009559314
21	0x3c23ad96	0.009990117
22	0x3c2452e4	0.010029528
23	0xbc1ce4a6	-0.009575998
24	0x3c1d9be6	0.009619689
25	0x3c231f93	0.009956258
26	0xbc1d933b	-0.009617622
27	0x3c1cc914	0.009569425
28	0xbc230096	-0.00994887
29	0xbc22cc83	-0.009936455
30	0x3c1eacf6	0.009684792
31	0x3c22ee69	0.009944537

network.5.running_mean f4 [32]
0	0xbcfaf7e1	-0.030635776
1	0xbe1383eb	-0.14405791
2	0xbeac74f8	-0.3368299
3	0x3e011bc7	0.12608252
4	0x3c6f29e8	0.014597394
5	0x3de3b9da	0.11119433
6	0xbdc4e467	-0.09613877
7	0x3e4bbbdb	0.1989588
8	0xbe477140	-0.19476795
9	0xbd5243fd	-0.05133437
10	0x3cd2a511	0.025713475
11	0x3e7f959b	0.24959414
12	0x3d3f560e	0.046712928
13	0x3e7dbc6e	0.24778911
14	0x3e0ac446	0.13551435
15	0x3e37bed8	0.17943895
16	0x3e0e3028	0.13885558
17	0xbe782048	-0.24231064
18	0x3e87fef1	0.26561692
19	0x3e20725f	0.15668629
20	0xbb67acbf	-0.0035350767
21	0x3ebc7bc8	0.36813188
22	0xbddf9137	-0.109163694
23	0xbb929cf5	-0.004474277
24	0xbdea337e	-0.114356026
25	0x3e26a1b9	0.1627263
26	0xbde2b2bf	-0.11069249
27	0x3d6722a4	0.05642952
28	0x3e4c2392	0.19935444
29	0x3d3d0dfe	0.046155922
30	0xbe75f045	-0.24017437
31	0xbe2a7f41	-0.16650106

network.5.running_var f4 [32]
0	0x3f18f4be	0.59748447
1	0x3f035985	0.5130847
2	0x3ef3c6ef	0.47612712
3	0x3ee3e90f	0.44513747
4	0x3ef1b4bc	0.47208202
5	0x3ee0ef16	0.43932408
6	0x3ec940ab	0.3930715
7	0x3f0c162a	0.5472132
8	0x3ed5fe0d	0.41795388
9	0x3f4bc41a	0.795961
10	0x3edff2aa	0.43739825
11	0x3f0bb021	0.54565626
12	0x3ec94f03	0.39318094
13	0x3ecf311a	0.4046715
14	0x3ec93782	0.39300162
15	0x3eda1c45	0.42599693
16	0x3ed42998	0.41437984
17	0x3ef5f560	0.4803877
18	0x3ecf41a4	0.40479767
19	0x3ed07c7d	0.40719977
20	0x3ed8469c	0.4224137
21	0x3f0833d3	0.5320408
22	0x3ed8daf5	0.4235455
23	0x3ecf019f	0.40430924
24	0x3f17604c	0.5913131
25	0x3f15ef0a	0.5856787
26	0x3ec30dcc	0.38096464
27	0x3f08f9dd	0.5350626
28	0x3ee5f57d	0.44913855
29	0x3ed7d034	0.42151034
30	0x3f28fee1	0.66013914
31	0x3ec32357	0.381129

network.8.weight f4 [1, 32]
0	0xbd9677ae	-0.07347046
1	0x3d744d48	0.059644014
2	0x3e2e6986	0.17032441
3	0xbda152b9	-0.07877106
4	0x3d83353f	0.0640664
5	0x3cf3d8fa	0.029766548
6	0x3dcf663e	0.10126923
7	0x3e1b5e7c	0.15172762
8	0xbd741b58	-0.05959639
9	0x3e048951	0.12943007
10	0xbe25dbee	-0.16197178
11	0xbd98ccf3	-0.07460966
12	0xbc997706	-0.018733513
13	0xbe0afac8	-0.13572228
14	0x3de75831	0.11296118
15	0x3c61b500	0.013776064
16	0x3e13a10b	0.14416902
17	0x3d8530d9	0.065034576
18	0x3de8bb70	0.11363876
19	0x3c8f79ec	0.017514192
20	0xbcfc79bb	-0.030819764
21	0x3dc2368f	0.094830625
22	0x3dee47a7	0.1163476
23	0xbe0f918c	-0.14020365
24	0x3d404a27	0.046945717
25	0x3e17a47f	0.14808844
26	0xbdc3aae1	-0.09554077
27	0x3d9035f0	0.07041538
28	0xbe0c4413	-0.13697843
29	0xbd92b098	-0.07162589
30	0x3c1ebad9	0.009688103
31	0x3d6043df	0.054752227
