experiments/random_forest-20260109_203242/checkpoint_2026-01-09_20-33-07.349232/model.pth (torch, 17799 bytes, 13 tensors)

network.0.weight f4 [64, 10]
0	0x3e07feac	0.13280743
1	0x3d2a02c2	0.041506536
2	0xbe18ff85	-0.14941223
3	0x3e93e761	0.28887466
4	0x3e8ba01f	0.272706
5	0x3ce11416	0.027475398
6	0x3e86f739	0.2636049
7	0xbe865657	-0.26237747
8	0x3daca58a	0.084300116
9	0xbaafbedb	-0.001340832
10	0xbe6366a0	-0.22207117
11	0xbdbf61fe	-0.093448624
12	0x3dddbdcc	0.108272165
13	0x3ea28e7a	0.31749326
14	0xbd8cd07a	-0.06875701
15	0xbce16116	-0.027512114
16	0x3bc62f14	0.0060480926
17	0xbd9591f0	-0.07303226
18	0xbe4dc935	-0.20096286
19	0xbe1790e2	-0.14801362
20	0x3e59187b	0.21200745
21	0x3de11e08	0.10992056
22	0x3e424299	0.18970717
23	0x3e7fc174	0.2497614
24	0xbd995b32	-0.07488097
25	0xbe844388	-0.25832772
26	0xbe88ba3a	-0.2670458
27	0x3e9ca378	0.30593467
28	0x3e88f523	0.26749524
29	0xbe8bc170	-0.2729602
30	0xbc947c1a	-0.018125582
31	0xbe8c8bca	-0.274504
32	0xbe28db04	-0.16489798
33	0x3cbb347f	0.02285218
34	0x3e37ef73	0.17962436
35	0xbe2d0916	-0.16897997
36	0xbe6a3d73	-0.22875004
37	0xbe87fca7	-0.26559946
38	0x3e4968fb	0.19668953
39	0xbcabada8	-0.02095683
40	0x3e8df8a9	0.27728775
41	0x3e8f8045	0.2802755
42	0x3d5b9761	0.053611163
43	0x3e849cbf	0.25900838
44	0xbdc04d94	-0.09389797
45	0x3e1c98e7	0.15292703
46	0x3d93e047	0.07220512
47	0x3b8b1457	0.004244368
48	0xbe999ac6	-0.30000895
49	0xbc2a38b0	-0.010389492
50	0xbd329734	-0.04360123
51	0x3e27e0a7	0.16394292
52	0x3d88c84c	0.066788286
53	0x3db3729e	0.08762096
54	0xbe4ae570	-0.19814086
55	0x3b50d696	0.0031866184
56	0xbe809bb0	-0.2511878
57	0x3dca0309	0.0986386
58	0xbe5e822c	-0.21729344
59	0x3bf96410	0.0076108053
60	0xbd91e83f	-0.071243756
61	0x3e99337f	0.299221
62	0x3e1d4c00	0.15361023
63	0x3e5f78ce	0.21823427
64	0x3e2be1bf	0.16785334
65	0x3e0ad39d	0.13557287
66	0xbe36dc00	-0.17857361
67	0x3e4ed5e9	0.20198788
68	0xbdd7d2f7	-0.10538285
69	0x3d438363	0.047732722
70	0x3e97e532	0.2966705
71	0x3d3499da	0.044092037
72	0xbcd4556d	-0.02591964
73	0xbe4a154c	-0.19734687
74	0xbd8a9dec	-0.067684025
75	0x3e81feff	0.2538986
76	0xbc9c15fc	-0.019053452
77	0x3e177c1a	0.14793435
78	0xbdde6fbf	-0.108611576
79	0xbdc7c68a	-0.09754665
80	0xbe57bf03	-0.21068959
81	0x3d9c4490	0.07630265
82	0x3e1ae74f	0.151273
83	0x3c829201	0.01593876
84	0xbe339a8c	-0.17539424
85	0xbde23b2d	-0.11046443
86	0xbce7e6f1	-0.028308364
87	0xbddcdd3c	-0.107843846
88	0x3ca72d2e	0.020407286
89	0x3dfbfef0	0.12304485
90	0x3e74158b	0.23836343
91	0x3e625a5e	0.22104785
92	0xbdedb637	-0.1160702
93	0x3e1eabed	0.15495272
94	0xbe6f8761	-0.23391487
95	0xbe92c1c9	-0.2866347
96	0xbe8c847f	-0.27444836
97	0x3e3bd623	0.18343405
98	0x3e5c3cf1	0.21507622
99	0x3e309d23	0.17247443
100	0xbe0bb7be	-0.13644311
101	0xbd290933	-0.04126854
102	0xbc952957	-0.018208189
103	0x3e1c0171	0.15234925
104	0x3d768a34	0.060190395
105	0xbe0ce501	-0.13759233
106	0x3e85bf96	0.2612273
107	0xbe6a6b81	-0.22892572
108	0x3e8ba7df	0.27276513
109	0xbda712cc	-0.08157882
110	0xbde220a8	-0.11041385
111	0x3c19b6e5	0.009381984
112	0x3e0513c5	0.12995823
113	0x3e527822	0.2055364
114	0xbd3d3eab	-0.046202343
115	0x3d67e7d5	0.056617577
116	0x3d359a37	0.044336524
117	0x3e237b68	0.15965044
118	0x3dac82d2	0.084233895
119	0xbe575ed7	-0.21032272
120	0xbe2ac6a9	-0.16677345
121	0xbd91ffa7	-0.0712884
122	0x3e9b2734	0.30303347
123	0x3e1cfa09	0.15329756
124	0x3e3d38c3	0.18478684
125	0xbe260342	-0.1621218
126	0x3de5dce3	0.112237714
127	0xbe28151c	-0.16414303
128	0xbe1c7d18	-0.15282094
129	0xbe56467e	-0.20925328
130	0xbd93e592	-0.072215214
131	0x3de2d35e	0.11075471
132	0x3e921212	0.28529412
133	0xbe208edf	-0.15679501
134	0xbe200249	-0.15625872
135	0xbc5f3ba1	-0.0136250565
136	0x3d836242	0.064152256
137	0xbe933108	-0.28748345
138	0x3d836804	0.06416324
139	0x3df779de	0.12083791
140	0x3df3e46d	0.11908803
141	0x3da7c1ab	0.08191236
142	0xbd7b5b76	-0.06136652
143	0xbe66e1e8	-0.22547114
144	0xbe81ff2a	-0.25389987
145	0x3e6963aa	0.22791925
146	0x3d73a40d	0.059482623
147	0xbe852712	-0.2600637
148	0x3e12ee35	0.14348681
149	0x3ce2d4e3	0.027689403
150	0xbe5c96d8	-0.21541917
151	0x3d86d495	0.065835156
152	0xbe803542	-0.25040632
153	0x3e9f14e3	0.31070623
154	0x3e25949d	0.16169973
155	0xbe000403	-0.1250153
156	0xbccaed6f	-0.02477142
157	0x3e980d86	0.29697818
158	0x3e0fa2cf	0.1402695
159	0x3e9779bd	0.29585066
160	0x3bafa3db	0.0053601093
161	0x3d8d925c	0.069126815
162	0x3e072cb5	0.13200648
163	0x3cb9d331	0.022683712
164	0x3b992ca4	0.004674511
165	0xbe59e44a	-0.21278492
166	0x3e8883db	0.26663098
167	0x3d9ab22d	0.075535156
168	0xbe12e3f0	-0.14344764
169	0x3d29aa77	0.041422334
170	0xbdc4edbf	-0.09615659
171	0xbddadcde	-0.10686658
172	0xbd06a250	-0.032869637
173	0x3e24e320	0.16102266
174	0x3d89e84d	0.06733761
175	0x3d4f7a20	0.050653577
176	0xbe933db6	-0.2875802
177	0xbd6276c3	-0.05528904
178	0x3da2039e	0.07910846
179	0xbe22def5	-0.15905364
180	0xbc90a775	-0.017657975
181	0xbea48421	-0.32132056
182	0xbd3ee129	-0.04660145
183	0xbe94f820	-0.29095554
184	0x3cb3ffd8	0.021972582
185	0xbe9d47cc	-0.3071884
186	0x3e0474d1	0.12935187
187	0xbe41bd0c	-0.18919772
188	0xbe7c80a8	-0.24658453
189	0x3e2aa6ab	0.16665141
190	0xbe2a1929	-0.1661116
191	0x3e39551b	0.18098871
192	0xbe5ca2d6	-0.21546492
193	0x3e97a6cc	0.29619443
194	0x3e1b2295	0.15149911
195	0x3e97d639	0.29655626
196	0xbe802824	-0.25030625
197	0xbe9e3cbc	-0.30905712
198	0x3e240d0e	0.16020605
199	0x3e609f02	0.21935657
200	0xbd4b0e8b	-0.049574416
201	0x3e87c4b7	0.2651727
202	0xbe88a10e	-0.26685375
203	0x3e173bbd	0.14768882
204	0xbe1bfc14	-0.15232879
205	0xbdf1486a	-0.1178139
206	0xbe7b383d	-0.24533172
207	0x3d9e7a19	0.07738132
208	0xbe227dc8	-0.15868294
209	0xbe1a159b	-0.15047304
210	0xbe79d5c8	-0.24397957
211	0x3dde0ea0	0.10842633
212	0xbe4bb815	-0.1989444
213	0xbe41a909	-0.18912138
214	0xbdb8159f	-0.08988499
215	0x3d92fa68	0.071766675
216	0x3da01683	0.07816794
217	0x3d96369d	0.073346354
218	0x3e5c4c5e	0.21513507
219	0xbdde7780	-0.108626366
220	0xbe312a8e	-0.1730139
221	0x3e8dc7ba	0.27691442
222	0x3d7b172f	0.061301406
223	0xbe03de00	-0.12877655
224	0x3d3d579b	0.046226125
225	0xbd4eb28a	-0.050463237
226	0x3b7c03c6	0.0038454398
227	0x3e57efd2	0.21087578
228	0xbe29a193	-0.16565542
229	0x3e97caee	0.2964701
230	0xbcd6a9e2	-0.026204053
231	0xbe6b939c	-0.23005527
232	0x3e1d7b0d	0.15378971
233	0x3e4a7411	0.19770838
234	0x3e7598e8	0.2398411
235	0xbd1cd882	-0.038292415
236	0xbd182bcb	-0.03715114
237	0xbda2fa65	-0.07957915
238	0xbe73f94d	-0.2382557
239	0x3e201692	0.1563361
240	0xbdefe11a	-0.117128566
241	0xbe9380b6	-0.28809136
242	0xbcb731ca	-0.022362608
243	0xbd8aded5	-0.06780783
244	0x3e864ae4	0.26229012
245	0xbdb83d73	-0.089960955
246	0x3de2283f	0.110428326
247	0xbdec3560	-0.11533618
248	0xbe8aebc8	-0.27133012
249	0xbd0b19a3	-0.033959996
250	0xbdce9632	-0.10087241
251	0x3ea3eec7	0.3201811
252	0x3c9b5fbe	0.018966552
253	0xbe2be269	-0.16785587
254	0x3e8851d5	0.26624933
255	0xbe831e06	-0.25608844

network.0.bias f4 [64]
0	0x3e9ffa69	0.31245735
1	0xbe0a42ca	-0.1350204
2	0xbe0e478f	-0.13894485
3	0xbde5029e	-0.1118214
4	0x3e5c65b9	0.21523179
5	0x3e66ddc4	0.22545534
6	0xbe521e29	-0.20519318
7	0xbda8246f	-0.08210074
8	0x3e12c1cb	0.14331739
9	0x3e19d22b	0.15021579
10	0xbe82c712	-0.25542504
11	0xbe9bfe88	-0.3046763
12	0xbe083b28	-0.13303816
13	0x3e6c67ee	0.23086521
14	0x3d270150	0.040772736
15	0x3da3dcc8	0.08001095
16	0xbe80f8bb	-0.25189766
17	0xbc7fbb8c	-0.0156086795
18	0x3e2a6e87	0.16643725
19	0xbd88190c	-0.06645402
20	0xbe57de08	-0.21080792
21	0xbde6b0c6	-0.112641856
22	0xbdce72c0	-0.100804806
23	0x3e99a224	0.30006516
24	0x3dad8676	0.08472912
25	0xbe8d4358	-0.27590442
26	0x3e679895	0.22616799
27	0xbe6d9e8b	-0.2320501
28	0x3e44778b	0.19186227
29	0x3e9c008f	0.30469176
30	0x3e7a0e8f	0.24419616
31	0xbca50d5d	-0.020147974
32	0x3d0ec224	0.034853116
33	0xbe45c19c	-0.19312137
34	0xbe2a4019	-0.16626014
35	0xbe973308	-0.2953112
36	0x3e9b9969	0.3039048
37	0xbe42984b	-0.19003408
38	0xbe51ba4f	-0.20481227
39	0xbca73391	-0.020410331
40	0xbcf6c35d	-0.030122453
41	0xbe8ffd14	-0.2812277
42	0x3e551977	0.20810495
43	0x3e8deef1	0.2772136
44	0xbe44854a	-0.1919147
45	0x3d6a0bef	0.057140287
46	0xbe833dc4	-0.2563306
47	0x3e5a3720	0.21310091
48	0xbe6ed319	-0.23322715
49	0xbdc9af4f	-0.098478906
50	0xbd968a12	-0.073505536
51	0xbe83e949	-0.2576392
52	0xbe88efd6	-0.2674548
53	0x3e63ab4b	0.22233312
54	0x3e9318fb	0.28729996
55	0x3e2c2b53	0.16813402
56	0xbe6137d9	-0.2199396
57	0x3e9fa2c1	0.3117886
58	0xbe5403f6	-0.20704636
59	0x3dd1648a	0.102242544
60	0x3e1e45bc	0.15456289
61	0x3e54083d	0.20706268
62	0xbe41ec3f	-0.18937777
63	0x3e349665	0.17635496

network.1.weight f4 [64]
0	0x3f8108f3	1.0080856
1	0x3f80ac0c	1.0052505
2	0x3f7e72e0	0.99394035
3	0x3f7e28ff	0.99281305
4	0x3f7f56d4	0.99741864
5	0x3f80c673	1.0060562
6	0x3f809836	1.0046451
7	0x3f7da557	0.99080414
8	0x3f7dd5ca	0.9915434
9	0x3f800324	1.0000958
10	0x3f7e3229	0.9929529
11	0x3f7fe665	0.9996093
12	0x3f7e86a6	0.9942421
13	0x3f8044ac	1.0020957
14	0x3f7f31d5	0.9968541
15	0x3f80a78b	1.005113
16	0x3f7ed3c1	0.9954186
17	0x3f7e618f	0.9936761
18	0x3f811451	1.0084325
19	0x3f7fe685	0.9996112
20	0x3f8108ae	1.0080774
21	0x3f7e1384	0.9924853
22	0x3f81145e	1.008434
23	0x3f80fc2f	1.007696
24	0x3f7ede24	0.9955771
25	0x3f8070a1	1.0034372
26	0x3f7e70d0	0.9939089
27	0x3f803810	1.0017109
28	0x3f7ed36b	0.9954135
29	0x3f7ff841	0.9998818
30	0x3f809f56	1.0048625
31	0x3f80b710	1.0055866
32	0x3f7f9d78	0.99849653
33	0x3f808d8e	1.0043199
34	0x3f7e0a00	0.9923401
35	0x3f7db375	0.99101955
36	0x3f804995	1.0022455
37	0x3f7e9f2d	0.9946163
38	0x3f7f0d41	0.996296
39	0x3f7e7f56	0.9941305
40	0x3f8127b4	1.0090241
41	0x3f7e4719	0.99327236
42	0x3f8062d6	1.0030162
43	0x3f81305d	1.0092884
44	0x3f7ea941	0.9947701
45	0x3f801559	1.0006515
46	0x3f7e9ab0	0.99454784
47	0x3f80e908	1.0071115
48	0x3f80840a	1.0040295
49	0x3f8121ad	1.0088402
50	0x3f80251d	1.0011326
51	0x3f80a01e	1.0048864
52	0x3f7e6cb8	0.9938464
53	0x3f80439b	1.0020632
54	0x3f80af9a	1.0053589
55	0x3f7f0892	0.9962245
56	0x3f813745	1.0094992
57	0x3f7eb778	0.994987
58	0x3f7e8d93	0.99434775
59	0x3f7f0bb6	0.99627244
60	0x3f80f25b	1.0073961
61	0x3f80321a	1.001529
62	0x3f7eabab	0.99480695
63	0x3f7e5530	0.99348736

network.1.bias f4 [64]
0	0x3c0aeb90	0.008479014
1	0x3c15b6f9	0.009137862
2	0xbb562330	-0.0032674782
3	0xbc028841	-0.007967056
4	0xbbdc09ac	-0.00671502
5	0xbbe4dc1a	-0.006984246
6	0xbb25d5bb	-0.0025304395
7	0x3b8ab66b	0.0042331717
8	0x3bc02663	0.005863951
9	0x3c0d84a6	0.008637583
10	0xbc042ad3	-0.008066851
11	0xbb165ae6	-0.0022942363
12	0xbbdfee0d	-0.006833798
13	0x3b687c5f	0.0035474522
14	0xbb9aa138	-0.004718926
15	0x3c101165	0.00879321
16	0xbc07d572	-0.008290635
17	0xba71f85c	-0.0009230429
18	0x3be34807	0.0069360766
19	0x3aab0496	0.0013047631
20	0x3c0ab1b4	0.008465219
21	0xbc00f664	-0.007871244
22	0x3bf7a51a	0.0075575234
23	0x3bf64d2f	0.007516525
24	0xbbad392c	-0.0052863564
25	0x3a120fc7	0.0005571809
26	0xbbe28fd9	-0.0069141206
27	0x3bd77038	0.006574657
28	0xbbe6c11a	-0.0070420625
29	0xb98a02a8	-0.0002632339
30	0x3b171a1a	0.002305633
31	0x3a208ad2	0.00061242015
32	0xbaf6a9c2	-0.0018818902
33	0x3a7b5efa	0.0009589043
34	0xbbf5e45b	-0.0075040287
35	0xbc1d0622	-0.009583982
36	0xb94ee790	-0.00019731955
37	0xbc219c03	-0.009863856
38	0xbb0cda09	-0.0021492264
39	0xbb43b665	-0.0029863354
40	0x3acce81e	0.0015633141
41	0xbc03d43f	-0.008046209
42	0x3bc2777e	0.0059346547
43	0x3b3646a0	0.0027813092
44	0x3ba14d53	0.004922548
45	0x3bd2767c	0.006422816
46	0xbb9b290f	-0.004735119
47	0x3bfebfda	0.0077743353
48	0x3bd38623	0.0064551993
49	0x3c0c126c	0.008549314
50	0x3b4f07a1	0.003159024
51	0x3b62735b	0.003455362
52	0xbbb2bc86	-0.0054546027
53	0x3b97efaf	0.004636727
54	0x3bfae95c	0.007657213
55	0xbb03ba98	-0.0020100232
56	0x3c181e70	0.009284601
57	0xbc028323	-0.007965836
58	0xbbb769d0	-0.0055973306
59	0xbbf7f505	-0.0075670504
60	0x3c1a70d3	0.009426313
61	0xba124520	-0.00055797584
62	0xbbfc3d9a	-0.007697773
63	0xbbf2969d	-0.0074032084

network.1.running_mean f4 [64]
0	0x428ee313	71.443504
1	0xc19aaaf7	-19.333479
2	0xc1939727	-18.448805
3	0x423cce0f	47.20123
4	0xc1c0652a	-24.049397
5	0xc252ed47	-52.731716
6	0x422c4c59	43.07456
7	0xc196d8a0	-18.855774
8	0xc231a8f8	-44.41501
9	0xc27596b7	-61.397182
10	0x416da5d0	14.852982
11	0xc1555338	-13.332817
12	0x423bf9e3	46.99403
13	0xc21f94ed	-39.895435
14	0xc2833336	-65.60002
15	0x422ea98e	43.66558
16	0x3fd5fc13	1.6717552
17	0x418e5688	17.792252
18	0x40a8d2e4	5.2757435
19	0x421a50cc	38.578903
20	0xc21c7712	-39.11628
21	0xc1bff951	-23.996737
22	0x41409fa0	12.038971
23	0x4277f233	61.986523
24	0x428756e9	67.66975
25	0x42881966	68.04961
26	0x3f988031	1.1914121
27	0xc11c963b	-9.786677
28	0xc1e3fcd3	-28.49845
29	0x41aa67d4	21.300697
30	0x3ff86453	1.9405617
31	0xc0df6c20	-6.981949
32	0x425a4620	54.56848
33	0x406fadfe	3.7449946
34	0xc274312e	-61.048027
35	0xc28d2e55	-70.59049
36	0xc28655db	-67.16769
37	0xc1b64607	-22.784193
38	0xc2519f38	-52.405487
39	0x42686de7	58.107327
40	0xc1bdfe52	-23.74918
41	0xc236c7a4	-45.69496
42	0xc29cf3cd	-78.47617
43	0xc28450f0	-66.15808
44	0xc214bcb4	-37.18428
45	0xc0c1b5d5	-6.0534463
46	0x41be8828	23.816483
47	0x429a62a4	77.19266
48	0x41528fc9	13.160104
49	0xc2932345	-73.568886
50	0x404dba0d	3.2144806
51	0x40ace63d	5.4031053
52	0x4229c0cc	42.43828
53	0xc21048a5	-36.070942
54	0xc2496e4c	-50.35771
55	0x42994820	76.64087
56	0xc1ccdd3c	-25.608025
57	0x42996cc1	76.71241
58	0x4289cdde	68.902084
59	0xc29f5342	-79.66261
60	0x3e870615	0.26371828
61	0xc23b91e9	-46.89249
62	0x423510f6	45.266563
63	0x421d478b	39.319866

network.1.running_var f4 [64]
0	0x452302bf	2608.1716
1	0x433be228	187.88342
2	0x432fc6ce	175.77658
3	0x4491111d	1160.5348
4	0x43961699	300.17654
5	0x44b2cf57	1430.4794
6	0x446f8055	958.0052
7	0x43369675	182.58772
8	0x447e4260	1017.0371
9	0x44f40789	1952.2355
10	0x42e7a146	115.81499
11	0x42b5244d	90.5709
12	0x448f6910	1147.2832
13	0x444d3ad6	820.9193
14	0x4509ec9a	2206.7876
15	0x4470bdb7	962.9643
16	0x3ff7fc6c	1.9373908
17	0x43274927	167.28575
18	0x416f312a	14.949503
19	0x4441d6a0	775.3535
20	0x44417f4c	773.989
21	0x439485c9	297.0452
22	0x4292b6ce	73.35704
23	0x44f5fd98	1967.9248
24	0x45136c3b	2358.7644
25	0x451608b1	2400.5432
26	0x3f82e09c	1.0224795
27	0x4240aae1	48.166874
28	0x43d4965d	425.1747
29	0x4364f917	228.973
30	0x40407850	3.0073433
31	0x41c26a70	24.301971
32	0x44bfcef2	1534.467
33	0x41133169	9.199563
34	0x44f07272	1923.5764
35	0x451e6f4e	2534.9565
36	0x451175e4	2327.3682
37	0x4382a60a	261.29718
38	0x44aefa34	1399.8188
39	0x44d7c7e9	1726.2472
40	0x438eac0d	285.34415
41	0x44869d01	1076.9064
42	0x4545fcc4	3167.7979
43	0x450d2cd9	2258.803
44	0x4431120d	708.28204
45	0x41a2186e	20.261929
46	0x4393631a	294.77423
47	0x453d8dc3	3032.86
48	0x42b828a6	92.07939
49	0x452c6ebb	2758.9207
50	0x40ec0855	7.376017
51	0x417ea469	15.915139
52	0x44684aa7	929.16644
53	0x4427b8c5	670.887
54	0x44a2d237	1302.5692
55	0x453ceec9	3022.924
56	0x43a96621	338.79788
57	0x453ca7fc	3018.499
58	0x4518f110	2447.0664
59	0x454c2e86	3266.9077
60	0x3ef7c785	0.4839441
61	0x448e2428	1137.1299
62	0x4483a9fb	1053.3119
63	0x444588a6	790.13513

network.4.weight f4 [32, 64]
0	0x3c9d2ecf	0.01918736
1	0xbe01a1f8	-0.12659442
2	0x3dd386d5	0.103284515
3	0x3d9bb9d5	0.07603804
4	0xbd1ee95a	-0.03879676
5	0x3d79ae90	0.06095749
6	0xbdf986fe	-0.12183951
7	0x3dbebcc8	0.09313351
8	0xbd37cefd	-0.044875134
9	0xbdbb679f	-0.091506235
10	0xbd05aaa7	-0.03263345
11	0xbdbb8e9a	-0.091580585
12	0xb98daffe	-0.0002702474
13	0xbdca06e7	-0.09864598
14	0xbb979ee1	-0.004627094
15	0x3d1a3a38	0.037653178
16	0xbd87ff84	-0.066405326
17	0x3df64169	0.12024195
18	0xbd40bfc1	-0.04705787
19	0xbd344b80	-0.044017315
20	0x3dbf8ed5	0.09353415
21	0x3d5df07d	0.054184426
22	0x3da47a1d	0.08031104
23	0xbc9e4567	-0.019320203
24	0x3de8952b	0.113565765
25	0xbdbab58a	-0.09116657
26	0xbe01c3cf	-0.12672351
27	0x3dba8bf9	0.09108729
28	0xbd7cf5a2	-0.06175769
29	0x3dcc7ffb	0.09985348
30	0xbd016ea2	-0.03159965
31	0x3d9855cd	0.0743824
32	0x3db2da3d	0.08733032
33	0x3c19e57c	0.009393092
34	0x3b25ff44	0.0025329152
35	0xbd55b830	-0.052177608
36	0xbd896037	-0.06707805
37	0x3d1e947f	0.038715836
38	0x3db181fd	0.086673714
39	0x3d8d4efe	0.06899832
40	0x3d26959d	0.040670026
41	0xbd3e2ce3	-0.046429526
42	0xbdb74137	-0.089479856
43	0xbdf8c28d	-0.121464826
44	0xbdf04a15	-0.1173288
45	0xbd87b2c8	-0.06625897
46	0x3db0cf9a	0.08633347
47	0xbd4cb581	-0.049977783
48	0x3d9d6192	0.07684626
49	0x3db7f3d3	0.08982053
50	0x3d670b97	0.056407537
51	0x3ba347a4	0.0049829055
52	0xbd5f3583	-0.054494392
53	0x3ddb7f5f	0.107176535
54	0xbd52c792	-0.051459856
55	0x3d3ae5f1	0.045629445
56	0xbcf2a279	-0.029618489
57	0xbd2886a1	-0.041144017
58	0x3d6fd58c	0.058553264
59	0x3d906623	0.07050731
60	0x3db406f1	0.087903865
61	0xbda69074	-0.08133021
62	0x3d8ddaca	0.06926496
63	0x3d49a8e4	0.049233332
64	0x3ddfc601	0.10926438
65	0x3c8308ad	0.015995348
66	0x3d697d47	0.05700424
67	0x3d444070	0.047913015
68	0xbd4957a5	-0.04915585
69	0x3be6d7bc	0.0070447605
70	0xbcecd9a9	-0.028912382
71	0xbb6a4ea4	-0.003575244
72	0x3dc8969f	0.09794354
73	0x3c1af32e	0.009457393
74	0xbd4bdda2	-0.049771912
75	0x3cea3116	0.02858786
76	0xbd19bb38	-0.03753206
77	0x3de8f3d1	0.11374629
78	0xbdf89574	-0.12137881
79	0x3bfb3f15	0.007667432
80	0x3cbd4a9a	0.023106862
81	0xbd9036d4	-0.07041708
82	0x3ca1bcc4	0.01974333
83	0x3d2dce70	0.042433202
84	0xbdb409d6	-0.087909386
85	0x3ce07fc1	0.027404668
86	0x3d7bc948	0.061471254
87	0xbd49bcd5	-0.04925235
88	0xbd6c272e	-0.057654552
89	0xbd845d71	-0.06463135
90	0xbd8882c9	-0.0666557
91	0xbd9b341b	-0.07578298
92	0xbd26dc22	-0.04073728
93	0xbd9ad856	-0.07560794
94	0xbd2145ac	-0.039373085
95	0xbd57e95c	-0.052712783
96	0xbdeebfb2	-0.11657657
97	0xbd6ff9e7	-0.058587935
98	0xbdf158de	-0.11784528
99	0xbd1c71d7	-0.038194504
100	0xbd38ee83	-0.045149338
101	0x3d10af3f	0.035323378
102	0x3dbc16bc	0.09184024
103	0x3d2a895e	0.04163491
104	0x3b75cc92	0.0037505967
105	0x3d323407	0.04350665
106	0x3df62594	0.12018886
107	0xbdddc8ba	-0.10829301
108	0xbcc1f421	-0.02367598
109	0x3dba2023	0.09088161
110	0x3d8abab6	0.067738935
111	0x3d45909e	0.04823362
112	0x3de3f2cf	0.111302964
113	0xbd097f7d	-0.033568848
114	0x3d598562	0.05310572
115	0xbda881f5	-0.08227912
116	0x3dd989f8	0.106220186
117	0x3dac78b9	0.084214635
118	0x3da56428	0.08075744
119	0x3dc789bf	0.0974307
120	0xbdf411d7	-0.11917465
121	0xbb3445e3	-0.0027507476
122	0x3d6d00f2	0.05786223
123	0x3d5d13d0	0.053973973
124	0xbd4da6d5	-0.05020793
125	0x3dacbb62	0.08434178
126	0x3d03f8b5	0.032219607
127	0x3ba6787a	0.00508028
128	0x3d9acfa6	0.07559137
129	0xbd0a7328	-0.033801228
130	0xbd992bcd	-0.074790575
131	0x3d6fa9e2	0.058511622
132	0xbd8fa053	-0.07013001
133	0xbdabe604	-0.083934814
134	0xbd4e0add	-0.05030333
135	0xbd535a1e	-0.051599614
136	0x3de71309	0.112829275
137	0x3da46cbd	0.08028553
138	0x3d9ab1da	0.07553454
139	0xbd9937c3	-0.07481339
140	0x3da9ad67	0.08285027
141	0x3d91f87f	0.07127475
142	0x3df638e3	0.12022569
143	0xbc7f72de	-0.015591351
144	0x3c96f9d5	0.018429676
145	0x3c2cfff3	0.01055907
146	0x3d90ae4f	0.07064497
147	0x3def49fd	0.11684034
148	0x3d95b3b8	0.07309669
149	0xbc7e0e31	-0.015506313
150	0x3d970d37	0.073755674
151	0x3d8d450c	0.06897935
152	0x3d3a558d	0.045491744
153	0xbd9a778f	-0.07542335
154	0x3ded3e4c	0.11584148
155	0xbddb30a8	-0.1070264
156	0x3dd89fca	0.10577352
157	0xbdf88482	-0.12134649
158	0xbd3d8abe	-0.046274893
159	0xbd638e64	-0.055555716
160	0x3d9b9761	0.075972326
161	0x3ddb700e	0.10714732
162	0x3c8f0b7d	0.017461533
163	0xbcfc91e8	-0.030831292
164	0x3d064154	0.032777146
165	0xbd7cfac1	-0.061762575
166	0x3d6a255c	0.057164535
167	0x3c83027f	0.015992401
168	0xbbbe67e8	-0.0058107264
169	0xbce83ef3	-0.028350329
170	0x3afa3010	0.001908781
171	0xbd95fa04	-0.07323077
172	0x3dfe36f7	0.124128275
173	0x3cdfdb77	0.027326329
174	0x3d14f435	0.036365706
175	0xbdd11a29	-0.10210068
176	0xbd4f21c2	-0.050569303
177	0xbdaf89a1	-0.085711725
178	0xbdfc2d44	-0.12313321
179	0xbc475a32	-0.0121675
180	0x3c839a9e	0.016064938
181	0xbde9ad89	-0.11410052
182	0x3d5ec43d	0.054386366
183	0xbdf16a47	-0.11787849
184	0xbddfb83c	-0.10923812
185	0xbdcbe881	-0.09956456
186	0xbd969b2a	-0.07353814
187	0x3db22a8c	0.086995214
188	0xbc276db7	-0.010219029
189	0xbdfe927c	-0.124302834
190	0xbb098748	-0.0020985175
191	0x3de6a208	0.11261374
192	0xbc7170a3	-0.014736327
193	0xbcd4c1ed	-0.025971377
194	0xbde16afe	-0.11006735
195	0xbcb2bae0	-0.021817625
196	0x3dba0752	0.090834275
197	0x3d49daca	0.04928092
198	0x3dec6af3	0.115438364
199	0xbdbd404e	-0.09240781
200	0xbd290704	-0.041266456
201	0x3dd7e7b2	0.10542239
202	0x3dfa1dae	0.12212692
203	0xbd9fc3ba	-0.07801004
204	0xbdb324d0	-0.08747256
205	0x3d0e320f	0.03471571
206	0xbdd8deae	-0.10589348
207	0xba736cb0	-0.000928591
208	0x3d7739fc	0.060358033
209	0x3df91ea2	0.12164046
210	0xbde999d3	-0.11406293
211	0xbdb056a5	-0.08610276
212	0xbde80fbc	-0.11331126
213	0x3dba7291	0.09103883
214	0xbd92fd66	-0.07177238
215	0x3da248a0	0.07924008
216	0x3cce18fc	0.025158398
217	0x3dbcf70c	0.09226808
218	0x3de1296d	0.109942295
219	0xbda66341	-0.081244
220	0x3d71a714	0.05899723
221	0x3dae1cee	0.08501612
222	0x3ddb6f8c	0.10714635
223	0xbc1a5687	-0.009420044
224	0x3df7faae	0.1210836
225	0x3dcdfa8f	0.10057556
226	0x3d710643	0.058843862
227	0xbcdab219	-0.026696252
228	0xbdcf0e0b	-0.101101
229	0x3cce6246	0.025193345
230	0x3d4f9ebd	0.050688494
231	0x3d28b9fd	0.041192997
232	0xbcf73c1c	-0.03018003
233	0xbc1fb9e8	-0.009748913
234	0xbd8934f1	-0.06699551
235	0xbd8482eb	-0.06470283
236	0xbddd7e12	-0.10815062
237	0xbdda0386	-0.10645203
238	0xbb4cbc7b	-0.0031240273
239	0xbd8e3756	-0.06944148
240	0x3dbb60ab	0.09149297
241	0xbda36416	-0.07978074
242	0x3dc6a4a7	0.09699374
243	0xbcdddfea	-0.02708431
244	0xbd3ca985	-0.046060104
245	0x3d92d250	0.0716902
246	0xbc321898	-0.010870121
247	0x3dc10c80	0.09426212
248	0xbdd63769	-0.104597874
249	0xbd7ab094	-0.061203554
250	0x3dc9f8c9	0.09861905
251	0x3d5be70e	0.053687148
252	0x3ce83434	0.028345205
253	0xbcf290c6	-0.029610049
254	0xbdb700f4	-0.08935729
255	0x3df7bcad	0.12096534

network.4.bias f4 [32]
0	0xbc7bc705	-0.015367274
1	0x3d66881a	0.05628214
2	0x3dd2c7c7	0.10292011
3	0x3dd6fa10	0.104969144
4	0x3da1cf40	0.07900858
5	0x3b47cc7f	0.003048688
6	0xbd24f02c	-0.04026811
7	0xbda3cf97	-0.07998579
8	0x3d0964a7	0.033543255
9	0x3df1461c	0.117809504
10	0x3d9e84dc	0.07740185
11	0x3dafd16f	0.08584868
12	0x3d9c307a	0.07626434
13	0xbb3c28e5	-0.0028710898
14	0xbc9313e2	-0.017953817
15	0xbd358f2e	-0.044326
16	0xbd9f71a8	-0.0778535
17	0x3d17104a	0.03688077
18	0x3ca0ec77	0.019644005
19	0x3d973019	0.07382221
20	0xba13cd69	-0.00056382135
21	0x3dfcf3ce	0.123511896
22	0x3d02c138	0.03192255
23	0x3bb296e0	0.0054501146
24	0x3db945d3	0.09046521
25	0xbc6fa02c	-0.01462559
26	0x3d3913de	0.045184962
27	0xbc620904	-0.013796095
28	0xbdcec344	-0.10095838
29	0x3dd6da7e	0.10490893
30	0xbd8ba55f	-0.068186514
31	0x3d7ac799	0.061225507

network.5.weight f4 [32]
0	0x3f8102e0	1.0079002
1	0x3f7d9694	0.9905789
2	0x3f7dbfc5	0.9912074
3	0x3f80ea91	1.0071584
4	0x3f805afe	1.0027769
5	0x3f7fd26c	0.99930453
6	0x3f7deced	0.99189645
7	0x3f810eb1	1.0082608
8	0x3f813936	1.0095584
9	0x3f80784a	1.0036709
10	0x3f7daf7c	0.9909589
11	0x3f812445	1.0089194
12	0x3f813110	1.0093098
13	0x3f7d7c7b	0.9901807
14	0x3f7dc686	0.9913105
15	0x3f80315b	1.0015062
16	0x3f812c98	1.0091734
17	0x3f7dc74e	0.9913224
18	0x3f7d84c7	0.9903073
19	0x3f7d8c01	0.99041754
20	0x3f80d0ea	1.0063756
21	0x3f81441b	1.0098909
22	0x3f81380f	1.0095233
23	0x3f7dbb96	0.9911436
24	0x3f812649	1.0089809
25	0x3f813bbd	1.0096356
26	0x3f812c66	1.0091674
27	0x3f7e0856	0.9923147
28	0x3f7d95fd	0.9905699
29	0x3f7d7d2f	0.9901914
30	0x3f810f8d	1.0082871
31	0x3f7e0ac7	0.99235195

network.5.bias f4 [32]
0	0x3c0ffe33	0.008788633
1	0xbc17e001	-0.009269715
2	0xbc14a152	-0.009071665
3	0x3c099409	0.008397111
4	0x3c1c3f45	0.009536569
5	0x3c1b22a1	0.009468705
6	0xbc107a23	-0.008818182
7	0x3c182589	0.009286293
8	0x3c20736c	0.009793144
9	0x3c12f914	0.008970518
10	0xbc1ae3d6	-0.009453734
11	0x3c18b609	0.009320744
12	0x3c215365	0.009846543
13	0xbc22bb8c	-0.00993241
14	0xbc0fba6a	-0.008772472
15	0x3c20a99d	0.009806064
16	0x3c1f01b4	0.009704996
17	0xbc13c345	-0.009018724
18	0xbc207b31	-0.009794996
19	0xbc206afa	-0.00979113
20	0x3c0de426	0.008660352
21	0x3c232519	0.009957575
22	0x3c20a18c	0.009804141
23	0xbc176d37	-0.009242347
24	0x3c201d57	0.00977262
25	0x3c1eb519	0.009686732
26	0x3c1ef902	0.009702923
27	0xbc05b2df	-0.008160322
28	0xbc19fd36	-0.009398749
29	0xbc230d3a	-0.009951884
30	0x3c12fa6b	0.008970837
31	0xbbf9afc2	-0.007619829

network.5.running_mean f4 [32]
0	0x3d95b850	0.073105454
1	0x3ded4406	0.1158524
2	0x3dc265ac	0.094920486
3	0x3e2bb52c	0.1676833
4	0xbc76fd3e	-0.015075026
5	0xbc592515	-0.01325347
6	0x3d054e4e	0.03254538
7	0x3ded8cb2	0.11599101
8	0xbdf3d29b	-0.11905404
9	0x3ec93887	0.3930094
10	0xbd6866a3	-0.056738507
11	0x3c77ad9a	0.015117073
12	0xbc8020e3	-0.015640682
13	0x3dd7da1c	0.10539648
14	0xbe8101b2	-0.25196606
15	0xbe5d2e33	-0.21599655
16	0x3c6ea43c	0.014565524
17	0x3d98dd12	0.07464041
18	0xbd54b8f7	-0.05193421
19	0xbaf98fce	-0.001904005
20	0x3e95310e	0.29138988
21	0x3dd90d99	0.10598297
22	0x3e9513d0	0.29116678
23	0xbe21080a	-0.15725723
24	0xbdd7f287	-0.10544305
25	0x3c954cc9	0.01822509
26	0xbe21015f	-0.1572318
27	0x3e482f60	0.19549322
28	0xbc77d2da	-0.0151259545
29	0x3e506415	0.20350678
30	0xbd98d450	-0.074623704
31	0x3daa0db2	0.083033934

network.5.running_var f4 [32]
0	0x3ef35099	0.4752243
1	0x3ec21371	0.37905458
2	0x3ed24c3d	0.4107379
3	0x3f409fee	0.75244033
4	0x3ee204a5	0.44144168
5	0x3ed0b3ef	0.40762278
6	0x3edbf5f2	0.4296108
7	0x3ed5e84e	0.41778797
8	0x3ecdb2d3	0.40175495
9	0x3edbbaa3	0.4291583
10	0x3ecdd7f4	0.40203822
11	0x3ee135dc	0.43986404
12	0x3edece8b	0.43516955
13	0x3f0a7fdb	0.5410134
14	0x3ee83a2b	0.4535688
15	0x3ef4a82b	0.47784552
16	0x3ec8cb79	0.39217737
17	0x3f09195c	0.5355432
18	0x3ecc47d9	0.39898565
19	0x3ec395a2	0.38200098
20	0x3ed75a53	0.420611
21	0x3f11b6b9	0.5691944
22	0x3ed3b960	0.41352367
23	0x3ef9c45d	0.48782626
24	0x3ec7b193	0.39002666
25	0x3f1eb699	0.6199737
26	0x3f03c889	0.5147787
27	0x3eccdeaa	0.4001363
28	0x3ed22c3a	0.41049367
29	0x3f0c7ae7	0.54875034
30	0x3efb5a71	0.4909244
31	0x3ec4d647	0.3844473

network.8.weight f4 [1, 32]
0	0x3d2d3795	0.042289335
1	0xbe0b8d19	-0.13628043
2	0xbe0eaddc	-0.1393351
3	0x3e084524	0.13307625
4	0x3e2d9bdc	0.16953987
5	0x3e14f3dd	0.14546151
6	0xbd30ae8a	-0.043135203
7	0x3cb6168f	0.022227554
8	0x3e19054d	0.14943428
9	0x3e06647e	0.13124272
10	0xbe10bf46	-0.14135465
11	0x3d43291a	0.04764662
12	0x3d71f57d	0.059072006
13	0xbdffe1ba	-0.12494226
14	0xbc2d2851	-0.010568694
15	0x3dfcde41	0.12347079
16	0x3d34e740	0.04416585
17	0xbe23e1ea	-0.16004148
18	0xbe013574	-0.12618047
19	0xbd074b98	-0.033031076
20	0x3e355a2d	0.1771018
21	0x3cd4571e	0.025920447
22	0x3c610a8f	0.0137354275
23	0xbdf99e94	-0.121884495
24	0x3e2341e8	0.1594311
25	0x3da36c50	0.07979643
26	0x3e029346	0.12751493
27	0xbb22fcbc	-0.002486988
28	0xbdf89d71	-0.121394046
29	0xbda1fa51	-0.07909072
30	0x3e1a5e09	0.15074934
31	0x3b1a7936	0.0023570783
