experiments/random_forest-20260109_200021/checkpoint_2026-01-09_20-00-46.969825/model.pth (torch, 17799 bytes, 13 tensors)

network.0.weight f4 [64, 10]
0	0x3dfe4d3f	0.12417077
1	0xbd03ed6f	-0.032208856
2	0x3dea5934	0.114427954
3	0x3d3e293a	0.046426035
4	0x3e60eeff	0.2196617
5	0x3dc5802f	0.0964359
6	0x3e6af783	0.2294598
7	0x3ea27af0	0.3173442
8	0xbe5ff3e5	-0.21870382
9	0x3e84d57c	0.25944126
10	0x3ddaa386	0.10675721
11	0xbe6272d4	-0.22114116
12	0xbd84914a	-0.06473024
13	0xbcc773d5	-0.024347225
14	0x3d8a9f86	0.06768708
15	0xbe29a491	-0.16566683
16	0xbe8ae08e	-0.27124447
17	0x3e2b95da	0.16756383
18	0xbd73c98a	-0.059518375
19	0xbe95f865	-0.29291072
20	0x3e842b91	0.2581449
21	0x3ddded95	0.10836331
22	0x3c83244e	0.016008522
23	0xbd10cc37	-0.035351004
24	0x3e8d1345	0.27553764
25	0x3c9aa5c4	0.018877871
26	0xbe9a1fc7	-0.3010237
27	0x3e2e6253	0.17029695
28	0xbda94dec	-0.082668155
29	0xbe3dce66	-0.18535766
30	0xbe6ea17a	-0.23303786
31	0xbba53f6e	-0.005042962
32	0x3c7af23e	0.015316544
33	0xbd2336c0	-0.039847136
34	0xbe6cf44e	-0.2314007
35	0xbe8aa0b5	-0.27075735
36	0x3e055dfa	0.1302413
37	0xbe8cfced	-0.27536717
38	0xbe8a123e	-0.26967043
39	0x3e233298	0.15937269
40	0xbe974ec5	-0.29552284
41	0x3e231e95	0.15929635
42	0xbe258c2f	-0.16166757
43	0x3e111965	0.14169843
44	0x3e2d8389	0.16944708
45	0xbe602ec4	-0.2189284
46	0x3e60c7b1	0.21951176
47	0x3e910529	0.2832425
48	0x3e0b2a6f	0.13590406
49	0x3e894056	0.26806897
50	0x3e1f9295	0.1558326
51	0x3e4b9695	0.19881661
52	0x3ea14683	0.3149911
53	0x3dd1d3fd	0.10245512
54	0xbe989c02	-0.29806525
55	0xbdc6bd95	-0.09704129
56	0x3e9fb889	0.31195477
57	0x3db05346	0.08609633
58	0xbdb2ee05	-0.08736805
59	0xbe9605b5	-0.2930123
60	0x3d921027	0.07131987
61	0x3e4ea00a	0.20178238
62	0x3c9e1111	0.019295247
63	0xbe4bff7d	-0.1992168
64	0xbe088f7a	-0.13335982
65	0xbe7aa9a8	-0.24478781
66	0x3e988b9e	0.2979402
67	0xbc8f4834	-0.017490484
68	0xbd0a30c2	-0.033737905
69	0x3ea09e0a	0.31370574
70	0xbdea9f7e	-0.11456202
71	0xbdfac87e	-0.12245272
72	0x3e8f0161	0.2793074
73	0x3bd75e25	0.006572502
74	0xbe9d08d6	-0.30670804
75	0x3dcd8925	0.10035924
76	0x3e62e8bc	0.22159094
77	0x3e4065b9	0.18788804
78	0xbe153d90	-0.14574265
79	0xbd29640b	-0.041355174
80	0x3e1000b1	0.14062764
81	0xbe407d52	-0.18797806
82	0xbe94f2a2	-0.29091364
83	0xbd8dba40	-0.0692029
84	0xbc2c10d8	-0.010502063
85	0x3e288659	0.164575
86	0xbe8efb0b	-0.27925906
87	0xbe9d840d	-0.3076481
88	0xbe9a4aab	-0.30135092
89	0x3e1c5f7e	0.15270802
90	0xbe74afbf	-0.23895167
91	0xbdad1a02	-0.08452226
92	0xbc2be596	-0.010491749
93	0xbe700d23	-0.23442511
94	0x3d5d1285	0.05397274
95	0xbda9361a	-0.08262272
96	0xbe68dbc1	-0.2274008
97	0xbdfb7439	-0.12278027
98	0x3d849f74	0.06475726
99	0xbe9237aa	-0.28558093
100	0xbe5c0468	-0.21486056
101	0x3e80de7f	0.2516975
102	0xbccfab3a	-0.025350202
103	0x3e8ebe08	0.27879357
104	0xbdb67494	-0.08908954
105	0xbe610166	-0.2197319
106	0xbe03f475	-0.12886222
107	0x3df87c7c	0.121331185
108	0xbe0b24b2	-0.13588217
109	0x3e19b465	0.15010221
110	0x3e2baf35	0.16766055
111	0xbe72817f	-0.23682211
112	0xbe820d1a	-0.2540062
113	0x3e8a0983	0.26960382
114	0x3e39df01	0.18151475
115	0x3dd3039f	0.10303425
116	0xbda9df34	-0.08294526
117	0x3c97a19a	0.018509675
118	0x3e4bd2de	0.19904658
119	0xbea0cb92	-0.31405312
120	0x3d3da33f	0.04629826
121	0xbe882ad7	-0.26595184
122	0xbe88d352	-0.26723725
123	0x3e479e95	0.19494088
124	0x3d2d9f07	0.04238799
125	0x3b026b87	0.0019900517
126	0x3e50ef26	0.20403728
127	0xbe4bda41	-0.19907476
128	0xbbec6471	-0.007214122
129	0x3e72fe37	0.23729788
130	0x3e49cef7	0.19707857
131	0x3dcf4140	0.10119867
132	0xbc8316c7	-0.016002072
133	0x3dcb3731	0.09922636
134	0xbe5e2f0b	-0.21697633
135	0x3dd97073	0.10617151
136	0xbe772b25	-0.24137552
137	0xbe1904b8	-0.14943206
138	0x3e02b36d	0.12763758
139	0xbe6c9236	-0.2310265
140	0xbc565065	-0.013080691
141	0x3b907ec3	0.0044096424
142	0xbe6b0639	-0.22951593
143	0xbe89e44f	-0.26931998
144	0xbb90209c	-0.0043984186
145	0xbe6f0120	-0.23340273
146	0x3e96367b	0.2933844
147	0xbca9f110	-0.02074483
148	0xbe144604	-0.14479834
149	0xbda632d2	-0.08115162
150	0x3e386141	0.1800585
151	0x3e34e79b	0.17666475
152	0xbdc14423	-0.09436824
153	0xbe967402	-0.29385382
154	0xbe18355c	-0.14864105
155	0xbe9c7ac6	-0.3056242
156	0x3e6df1a4	0.2323671
157	0x3e8e1dde	0.27757162
158	0x3e592e05	0.21208961
159	0xbe901ffb	-0.281494
160	0x3d5f36dc	0.054495677
161	0x3e6134d2	0.21992806
162	0xbd3f76d2	-0.046744175
163	0xbe1bc59e	-0.15212104
164	0xbe4331c4	-0.19061953
165	0x3e8002b4	0.25002062
166	0x3e9ac94f	0.3023171
167	0xbdd0c308	-0.10193449
168	0x3dd3bd35	0.10338823
169	0xbe23f1e3	-0.16010241
170	0x3d06f62a	0.032949604
171	0x3e3530b5	0.17694362
172	0x3d7a8ccf	0.06116944
173	0xbcf3691e	-0.02971321
174	0xbe0f2ecd	-0.13982697
175	0x3c8e5980	0.017376661
176	0xbe312f60	-0.17303228
177	0x3e3a0531	0.18166043
178	0x3db51907	0.08842664
179	0x3e589e7c	0.21154207
180	0xbd77ac40	-0.060467005
181	0x3e887cf7	0.2665784
182	0x3e87bf92	0.26513344
183	0xbd3fea5b	-0.04685436
184	0xbe49c923	-0.19705634
185	0xbe1783e7	-0.1479641
186	0x3e1ac0f8	0.15112674
187	0x3d537263	0.05162276
188	0x3caf9106	0.021431457
189	0xbd3cd64e	-0.046102814
190	0xbe8d81f7	-0.27638218
191	0x3d9e41bf	0.07727384
192	0x3d021bb0	0.031764686
193	0x3b58eae6	0.0033098995
194	0xbe42e611	-0.19033076
195	0x3d50c2e4	0.050967112
196	0xbd904cf7	-0.0704593
197	0xbe0cfa8d	-0.13767453
198	0xbdfbf198	-0.1230194
199	0x3e41fd36	0.18944249
200	0xbe4296e4	-0.19002873
201	0xbdc88b35	-0.09792177
202	0x3e83b352	0.25722748
203	0xbc48849d	-0.012238649
204	0xbc68572c	-0.01418094
205	0x3e8808fc	0.26569355
206	0xbe3fce4b	-0.18731038
207	0xbe720a37	-0.23636709
208	0xbdfd241c	-0.12360403
209	0x3e9c1d80	0.30491257
210	0x3e2bd8be	0.167819
211	0x3e17a68d	0.14809628
212	0x3e896ce9	0.26840904
213	0x3e42b53d	0.1901445
214	0xbdcdc9c9	-0.10048253
215	0xbbd218b2	-0.0064116353
216	0xbd8b28cf	-0.06794893
217	0x3debf591	0.115214474
218	0xbdd3f688	-0.103497565
219	0xbe0a53f9	-0.13508596
220	0xbe2dc078	-0.16967952
221	0x3d569c38	0.052395076
222	0xbe2a0af0	-0.16605735
223	0x3e4cc425	0.19996698
224	0x3ca4e14b	0.02012696
225	0x3baa752d	0.0052019567
226	0x3e4b2fac	0.19842404
227	0xbe9e08da	-0.30866128
228	0x3e50702b	0.20355289
229	0xbd0f5a1a	-0.034998037
230	0x3cc455c9	0.023966687
231	0x3e11e0a9	0.14245857
232	0xbcd2e13d	-0.025742168
233	0xbdf02e57	-0.117275886
234	0x3e2487cd	0.16067429
235	0xbd8e8c90	-0.06960404
236	0x3e17c5e2	0.1482158
237	0xbd8905e9	-0.066905804
238	0x3d6a4621	0.057195786
239	0x3e439300	0.19099045
240	0xb9ff5756	-0.0004870246
241	0xbe763baa	-0.24046198
242	0xbd3ddc6d	-0.046352793
243	0xbe8dc1fd	-0.27687064
244	0x3e86e447	0.26346037
245	0x3e0b4be6	0.13603172
246	0x3e1d5ee7	0.15368234
247	0xbe84fed0	-0.25975657
248	0x3e3f3e3b	0.18676083
249	0x3cf299d0	0.02961436
250	0x3e9bb49a	0.30411226
251	0x3e268cba	0.1626462
252	0x3e82d0f4	0.25550044
253	0xbda74283	-0.08166983
254	0xbd40057e	-0.046880238
255	0xbda03271	-0.07822121

network.0.bias f4 [64]
0	0x3e1ec008	0.15502942
1	0x3e194d5f	0.14970921
2	0xbe69a5a6	-0.22817096
3	0x3dcba3a2	0.0994332
4	0x3e6daac4	0.23209673
5	0x3e506bc8	0.20353615
6	0xbd8794e6	-0.06620197
7	0x3d93cd3e	0.07216881
8	0x3d568560	0.05237329
9	0xbda09b8e	-0.0784217
10	0xbdcc4d7f	-0.09975719
11	0x3e78c7da	0.24294987
12	0x3d56e408	0.05246356
13	0xbdc47f6d	-0.09594617
14	0xbddbf41c	-0.107399195
15	0x3e275861	0.16342308
16	0xbe5f6edd	-0.21819635
17	0x3e3fb94f	0.18723033
18	0xbe0f86cd	-0.14016266
19	0xbd264cd2	-0.040600605
20	0x3e97f81c	0.2968148
21	0xbe217f3c	-0.15771192
22	0xbe8959d4	-0.26826346
23	0x3d9e11f8	0.07718271
24	0xbdbfeaac	-0.09370932
25	0xbe62921c	-0.22126049
26	0x3e946ed7	0.28990814
27	0x3e1e57ad	0.15463133
28	0xbd77cab2	-0.06049604
29	0xbcf1b8ee	-0.029507127
30	0x3d9a49cd	0.07533608
31	0x3da37196	0.07980649
32	0xbe1140b8	-0.14184844
33	0x3cac9ce1	0.0210709
34	0xbe3e5749	-0.18587984
35	0xbe73b88e	-0.23800871
36	0xbd86e799	-0.065871425
37	0xbd918625	-0.07105664
38	0xbd1ac2be	-0.037783377
39	0x3cd1c9e0	0.025608957
40	0x3e059dc9	0.13048472
41	0xbe9bf8d2	-0.30463272
42	0x3e37bbf1	0.17942788
43	0x3e056c7b	0.13029663
44	0x3de4019f	0.11133122
45	0xbd55a678	-0.05216071
46	0xbdf3df03	-0.119077705
47	0xbcd9a558	-0.0265681
48	0x3e10d21b	0.14142649
49	0x3e0ca6fd	0.13735576
50	0x3e47ae4a	0.1950008
51	0xbe77bab6	-0.24192318
52	0xbe0581f2	-0.13037851
53	0xbe7f9060	-0.24957418
54	0x3e1d4194	0.15357047
55	0xbdcae2a4	-0.099065095
56	0x3e37c4d1	0.17946173
57	0xbdb83e00	-0.089962006
58	0x3e53e5dd	0.20693155
59	0xbdab22e3	-0.083562635
60	0xbe1ae175	-0.15125068
61	0xbe86a0f1	-0.26294664
62	0x3e921c48	0.28537202
63	0x3e7062eb	0.23475234

network.1.weight f4 [64]
0	0x3f811375	1.0084063
1	0x3f80c89c	1.0061221
2	0x3f7f3215	0.99685794
3	0x3f7fe88a	0.999642
4	0x3f806b72	1.003279
5	0x3f80f791	1.0075551
6	0x3f8006bd	1.0002056
7	0x3f7e070b	0.99229497
8	0x3f80f31f	1.0074195
9	0x3f8061c1	1.0029832
10	0x3f802f59	1.0014449
11	0x3f7eee4a	0.9958235
12	0x3f7f6b96	0.9977354
13	0x3f7e1831	0.99255663
14	0x3f80a1af	1.0049342
15	0x3f807614	1.0036035
16	0x3f8078f0	1.0036907
17	0x3f7f19b3	0.9964859
18	0x3f7fc6b6	0.99912584
19	0x3f80f844	1.0075765
20	0x3f7f885b	0.99817437
21	0x3f7e2994	0.99282193
22	0x3f800801	1.0002443
23	0x3f7f2646	0.99667776
24	0x3f80901a	1.0043976
25	0x3f7e2189	0.9926992
26	0x3f80a101	1.0049134
27	0x3f7f744e	0.9978684
28	0x3f7f20d3	0.9965946
29	0x3f7e1528	0.9925103
30	0x3f807360	1.003521
31	0x3f806ea3	1.0033764
32	0x3f7f1c5e	0.9965266
33	0x3f812b19	1.0091277
34	0x3f80d8a9	1.006612
35	0x3f7df788	0.9920583
36	0x3f7efafd	0.9960173
37	0x3f80b945	1.005654
38	0x3f8091b9	1.0044471
39	0x3f7ddf9f	0.99169344
40	0x3f80a149	1.004922
41	0x3f80d733	1.0065674
42	0x3f80fae5	1.0076567
43	0x3f811aa5	1.0086256
44	0x3f7fe7f9	0.9996334
45	0x3f80682e	1.0031793
46	0x3f808e38	1.0043402
47	0x3f804fa7	1.0024308
48	0x3f7e8361	0.9941922
49	0x3f7e52e6	0.9934524
50	0x3f7dc0c4	0.9912226
51	0x3f801f51	1.0009557
52	0x3f80522f	1.002508
53	0x3f7e0905	0.9923251
54	0x3f810c90	1.0081959
55	0x3f80692b	1.0032095
56	0x3f8097c0	1.004631
57	0x3f7fb476	0.99884737
58	0x3f80e6aa	1.0070393
59	0x3f7ec39a	0.99517214
60	0x3f8001d9	1.0000564
61	0x3f805595	1.0026118
62	0x3f7fe29e	0.99955165
63	0x3f80b62d	1.0055596

network.1.bias f4 [64]
0	0x3c13b7d4	0.009015996
1	0x3bfc5dc1	0.007701606
2	0x3bdba3ce	0.0067028766
3	0x3bbc7aff	0.005751967
4	0xbc0379c6	-0.0080246385
5	0x3c21c853	0.009874421
6	0xbc0fc93d	-0.008776006
7	0x3bac3f1c	0.0052565467
8	0x3bf77483	0.007551731
9	0x3c18b3da	0.009320224
10	0xbb9d7f08	-0.004806403
11	0x3bd8a01b	0.006610883
12	0x3c038e7a	0.0080295745
13	0xbc173282	-0.009228351
14	0xbc08e2f9	-0.008354896
15	0x3a6fa71c	0.00091420277
16	0x3abe54ce	0.0014521123
17	0x3c0da251	0.008644656
18	0x3c1c53e6	0.009541487
19	0x3c01de80	0.007926583
20	0x3bd41da8	0.006473262
21	0xbc091f60	-0.008369297
22	0xbb9f9457	-0.0048699784
23	0xbc081317	-0.008305333
24	0x3bb1f4ce	0.0054307943
25	0xbc084146	-0.008316344
26	0x3c1ce528	0.0095761195
27	0xbc165a5b	-0.009176816
28	0xbc1babd6	-0.009501418
29	0xbc175686	-0.009236937
30	0x3c1376e2	0.009000512
31	0x3c16ac10	0.009196296
32	0xbb79ada9	-0.0038097894
33	0x3c13ee16	0.009028932
34	0x3ae9c58a	0.001783536
35	0xbc157304	-0.00912166
36	0xbbc84044	-0.0061111767
37	0xbc1ae81e	-0.009454755
38	0x3b2c2b12	0.002627079
39	0xbc1aeb9b	-0.009455587
40	0x3c1906ca	0.009339998
41	0x3c032d20	0.008006364
42	0x3c0a719c	0.008449938
43	0x3bfb7034	0.0076732878
44	0x3c0cde80	0.00859797
45	0x3bfad522	0.007654802
46	0x3b4e3a24	0.003146776
47	0xbbfe77fb	-0.0077657676
48	0xbb707ef6	-0.0036696768
49	0xbb539a3a	-0.003228797
50	0x3b2e18cf	0.002656508
51	0x3bc85462	0.006113575
52	0xba0af4b0	-0.00053007435
53	0xbba449b3	-0.0050136684
54	0x3c04ee10	0.008113399
55	0x3c142b4b	0.009043525
56	0xbc084b72	-0.008318769
57	0xbc0ef927	-0.008726395
58	0x3c068b51	0.008211927
59	0xbc1cb112	-0.009563701
60	0xba55de54	-0.00081584346
61	0xbb4273e9	-0.0029671139
62	0x3ae255e8	0.0017268034
63	0x3b6a1597	0.0035718435

network.1.running_mean f4 [64]
0	0x42640fa4	57.015274
1	0x41839d55	16.451822
2	0x4290b2f7	72.34954
3	0xc26f2644	-59.78737
4	0x4230e284	44.221207
5	0xc29a14c8	-77.04059
6	0xc20a4dc9	-34.575962
7	0xc2a055fc	-80.16794
8	0xc055759d	-3.3353035
9	0x4162d0d4	14.175983
10	0xc1c341ed	-24.40719
11	0x423a0a90	46.510315
12	0x41345a6d	11.272077
13	0xc26622fa	-57.534157
14	0xbf992f18	-1.1967497
15	0xc2146868	-37.10196
16	0xc24211f8	-48.517548
17	0xc20f11d9	-35.76743
18	0xc24f4a1f	-51.822384
19	0xc24b8300	-50.87793
20	0xc02b1616	-2.673223
21	0xc1d9e8d9	-27.238695
22	0x4086e878	4.2158775
23	0x422c8590	43.130432
24	0x428b48d4	69.64224
25	0xc152c91a	-13.174097
26	0x4223f1e1	40.98621
27	0xc21dfaf5	-39.495075
28	0x41cfec57	25.9904
29	0xc26bb29d	-58.924427
30	0xc2029a84	-32.650894
31	0xc2930654	-73.51236
32	0xc1f3762c	-30.432701
33	0x42953375	74.6005
34	0x421cbff0	39.18744
35	0xc2993a73	-76.61416
36	0xc0a8a0b4	-5.269617
37	0x42004d3c	32.075424
38	0xc186ee39	-16.86632
39	0x424067ef	48.101498
40	0xc2854d9d	-66.65159
41	0x419c8658	19.565598
42	0x4266a0e0	57.657104
43	0xc283f3e7	-65.97637
44	0x429a6846	77.20366
45	0xc288ded4	-68.43521
46	0xc1fe9959	-31.824877
47	0x42a469b0	82.20642
48	0xc206e365	-33.722065
49	0x4098523c	4.7600384
50	0x42148697	37.131435
51	0xc1a12b94	-20.146278
52	0x42282459	42.035496
53	0x41120e94	9.128559
54	0xc230dca9	-44.21549
55	0xc10831cc	-8.512157
56	0xc29afbde	-77.49193
57	0x410f3700	8.950928
58	0x4289a5fb	68.82418
59	0x41866573	16.799536
60	0x41e6b553	28.838537
61	0x4210393c	36.055893
62	0xc16834d7	-14.5129
63	0x42744700	61.069336

network.1.running_var f4 [64]
0	0x44cd857c	1644.1714
1	0x430cbb74	140.73224
2	0x45295fdb	2709.991
3	0x44e4f9ba	1831.804
4	0x44749f45	978.4886
5	0x453fd53b	3069.327
6	0x441b9498	622.3218
7	0x454f81f6	3320.1226
8	0x40a69b01	5.2064214
9	0x42d9bd57	108.869804
10	0x43991c39	306.2205
11	0x448a8c10	1108.377
12	0x4281f7d0	64.98401
13	0x44d24ddc	1682.4331
14	0x3fa6995e	1.3015554
15	0x4434c6d1	723.1065
16	0x4496bfe6	1205.9968
17	0x4426eae4	667.67017
18	0x44acbb3f	1381.8514
19	0x44a56f0e	1323.4705
20	0x408fe017	4.4961047
21	0x43bd3eb8	378.49
22	0x412ef715	10.935323
23	0x446d265c	948.59937
24	0x451c418f	2500.0974
25	0x42b921c3	92.56594
26	0x4456ef8e	859.74304
27	0x4449b10a	806.76624
28	0x43b0ed15	353.8522
29	0x44df6ca9	1787.3956
30	0x440a6a9f	553.66595
31	0x452f271e	2802.4448
32	0x43f134c0	482.4121
33	0x45335dfa	2869.8735
34	0x4446af37	794.73773
35	0x453a0fc4	2976.9854
36	0x4173cdfb	15.237788
37	0x440420c3	528.5119
38	0x4314d676	148.83774
39	0x4493860a	1180.1887
40	0x450eff53	2287.9578
41	0x43473fdc	199.24945
42	0x44d3c298	1694.081
43	0x450d3239	2259.139
44	0x453ebe24	3051.8838
45	0x45167bb0	2407.7305
46	0x440128a3	516.63495
47	0x4559620f	3478.1287
48	0x4412c2c6	587.04333
49	0x4161e1b7	14.117606
50	0x4432175f	712.3652
51	0x435368a6	211.40878
52	0x4463350c	908.82886
53	0x422cdac4	43.21364
54	0x447cb8c5	1010.887
55	0x420ea2dd	35.659046
56	0x45416b81	3094.719
57	0x422d1d5a	43.278664
58	0x45159071	2393.0276
59	0x43112a53	145.16533
60	0x43d76bf6	430.84344
61	0x44282d14	672.70435
62	0x42e4717d	114.22166
63	0x44f00ba8	1920.3643

network.4.weight f4 [32, 64]
0	0x3d011443	0.031513464
1	0xbbc4305b	-0.0059872097
2	0xbccc976d	-0.02497455
3	0xbd9fec7d	-0.078087784
4	0xbd5c1b3e	-0.053736918
5	0x3ca45469	0.020059781
6	0x3cd0a1cd	0.025467778
7	0x3d56228b	0.052279036
8	0x3d20382a	0.039116062
9	0xbdeafdfd	-0.11474226
10	0xbc8136d3	-0.015773213
11	0x3d0b48ab	0.03400485
12	0xbdeb4fb7	-0.11489814
13	0x3d17ef9e	0.03709375
14	0x3dfbea09	0.12300498
15	0x3d4fa245	0.05069186
16	0xbd6ba16d	-0.057526994
17	0xbd21d589	-0.039510284
18	0x3c076e2f	0.008266016
19	0xbde6b09d	-0.11264155
20	0x3d1990f8	0.03749177
21	0xbd786f48	-0.060653
22	0xbdf07ba0	-0.117423296
23	0x3d1ed4c9	0.038777146
24	0x3d9df847	0.07713371
25	0xbdd83fc3	-0.105590366
26	0xbbb12444	-0.0054059345
27	0xbdcf841b	-0.10132619
28	0xbcfcc48c	-0.03085544
29	0xbde7e4a9	-0.1132291
30	0x3da860eb	0.08221611
31	0x3cb4d19d	0.022072608
32	0xbd9e5d3a	-0.07732625
33	0x3d9cc677	0.07655042
34	0x3d992629	0.074779816
35	0xbd8de2da	-0.06928034
36	0xbda69a6c	-0.081349224
37	0xbd198637	-0.037481513
38	0x3d13140d	0.035907794
39	0xbd6aeaa3	-0.057352673
40	0xbcf20a09	-0.0295458
41	0x3d0e6f88	0.034774333
42	0xbd18d9af	-0.037316974
43	0xbc28f1d3	-0.010311562
44	0x3c1d8b91	0.009615795
45	0x3dad6325	0.08466176
46	0xbdf03b69	-0.117300816
47	0x3dab7728	0.083723366
48	0x3cedde43	0.029036647
49	0x3de84974	0.11342135
50	0xbda63ffb	-0.08117672
51	0x3daa7c0b	0.083244406
52	0x3da6de42	0.08147861
53	0x3d41fcc5	0.0473602
54	0x3e02518b	0.12726419
55	0x3dbb4988	0.09144884
56	0xbdae5ffd	-0.08514402
57	0xbd97640b	-0.073921286
58	0x3c7b3c6f	0.015334233
59	0x3c6c6edb	0.014430727
60	0x3db7bbce	0.08971368
61	0xbdd45e22	-0.10369517
62	0xbd7b3e96	-0.061338983
63	0xbd5804e0	-0.052739024
64	0x3dc606a6	0.09669237
65	0x3defeb7d	0.11714838
66	0x3d001b5b	0.03127609
67	0x3d0acbbc	0.033885702
68	0xbcf531e7	-0.029931022
69	0x3cf33b35	0.029691318
70	0xbdc2cbec	-0.09511551
71	0x3dd7eab1	0.10542811
72	0xbda7c135	-0.08191148
73	0x3d799b22	0.06093896
74	0x3d537535	0.05162545
75	0x3d824f7e	0.06362818
76	0xbd4dd424	-0.05025114
77	0xbda913b0	-0.08255708
78	0xbabca310	-0.0014391858
79	0x3dc2d2d6	0.0951287
80	0xbdb51cb9	-0.08843369
81	0x3c8ad89f	0.016948996
82	0xbd2f6a96	-0.042826258
83	0xbd9b5c8a	-0.0758601
84	0xbd6f3121	-0.058396462
85	0x3c82ef90	0.015983373
86	0x3c705712	0.014669197
87	0xbde2852a	-0.11060555
88	0xbd5eacc5	-0.054363985
89	0x3c8e9532	0.017405126
90	0xba0e3b7c	-0.0005425734
91	0xbdd1b828	-0.10240203
92	0x3d18f452	0.037342377
93	0xbda56498	-0.08075827
94	0xbdb31eb9	-0.08746094
95	0xbd8f6015	-0.07000748
96	0x3d15c09d	0.036560643
97	0x3daf1b4a	0.08550127
98	0xbda0b7e2	-0.07847573
99	0x3da51f32	0.08062591
100	0xbd3f724b	-0.046739858
101	0x3cd2fb6c	0.025754653
102	0x3dc55c2a	0.096367195
103	0xbcf32085	-0.029678592
104	0x3c9cefa4	0.019157238
105	0xbdfd5892	-0.12370409
106	0x3dcf43ef	0.10120379
107	0xbd259116	-0.040421568
108	0xbddb6d33	-0.107141875
109	0x3d363d37	0.044491973
110	0xbd8bbd68	-0.06823236
111	0xbdf1e3a8	-0.11811
112	0xbd4acdc5	-0.049512643
113	0xbdc61b0c	-0.096731275
114	0xbdb40895	-0.087906994
115	0xbd1a2bb7	-0.037639346
116	0xbdeab0e0	-0.114595175
117	0xbca80033	-0.020507907
118	0xbc09b4c4	-0.008404914
119	0x3b486351	0.0030576775
120	0x3d8961ca	0.06708105
121	0xbd21ebc1	-0.039531473
122	0xbd451321	-0.048113946
123	0x3d5ccabb	0.053904276
124	0xbc4c4939	-0.0124686295
125	0x3d65a60a	0.05606655
126	0xbdef0dae	-0.11672531
127	0xbdce089e	-0.10060237
128	0x3d09e642	0.033666857
129	0xbd0f05c2	-0.0349176
130	0x3dadbb8e	0.08483039
131	0xbd1f676f	-0.038917
132	0x3d069af6	0.032862626
133	0xbcc9b888	-0.024624124
134	0xbda2b26e	-0.07944189
135	0x3dd25603	0.10270312
136	0xbcf8769e	-0.030329999
137	0x3dbf7b99	0.09349746
138	0xbcce5652	-0.025187645
139	0x3d021db6	0.031766616
140	0x3dc68206	0.09692769
141	0xbd9661d4	-0.07342878
142	0xbde3a5b0	-0.11115587
143	0x3d6d1fe7	0.057891753
144	0xbccd81e9	-0.02508636
145	0x3da1dd4a	0.07903536
146	0x3d448418	0.047977537
147	0x3dec1ac2	0.11528541
148	0x3c2d4780	0.010576129
149	0x3df4c943	0.1195245
150	0x3db54023	0.08850124
151	0x3da5ba4c	0.08092174
152	0xbc413e12	-0.011794584
153	0x3da47271	0.080296405
154	0xbdd7eb4a	-0.10542925
155	0xbdf0638c	-0.11737737
156	0x3da0ea34	0.07857171
157	0x3de46381	0.11151791
158	0xbdb810a0	-0.08987546
159	0xbdbafd69	-0.091303654
160	0x3db457b1	0.08805788
161	0xbd9ef36a	-0.07761271
162	0xbda99e45	-0.08282141
163	0xbc9e251d	-0.019304806
164	0x3d5f715f	0.05455148
165	0x3dbcc311	0.092168935
166	0xbba40413	-0.0050053685
167	0xbdd95d48	-0.10613495
168	0x3daaf906	0.08348279
169	0x3dc4766f	0.09592902
170	0x3c2d5a85	0.010580664
171	0xbc71116d	-0.014713627
172	0x3da35fc1	0.07977248
173	0x3de94a70	0.11391151
174	0xbc8feadb	-0.017568043
175	0xbdcdde80	-0.10052204
176	0xbceb6994	-0.028736867
177	0x3dc1fa8a	0.09471615
178	0xbd213e20	-0.039365888
179	0x3cfb7ef6	0.030700188
180	0xbcd2c7c2	-0.025730018
181	0x3cd8e118	0.02647452
182	0x3c87e6b5	0.016589502
183	0x3d4999f7	0.049219098
184	0x3c242095	0.010017534
185	0xbd8545b9	-0.06507439
186	0x3dd58368	0.104254544
187	0xbc4efdd3	-0.012633759
188	0xbd3ee34d	-0.04660349
189	0x3c0d3323	0.008618149
190	0x3d937991	0.07200921
191	0xbde4e2da	-0.11176081
192	0x3d97e289	0.07416255
193	0xbd13f76c	-0.03612463
194	0x3da5f25d	0.08102868
195	0x3d271bdd	0.040798057
196	0x3dc08d30	0.094019294
197	0x3d8a61e7	0.06756955
198	0x3dfa9559	0.12235517
199	0xbd267294	-0.040636614
200	0xbd571af9	-0.052515958
201	0xbdd01b1e	-0.10161422
202	0x3d78aa7b	0.060709458
203	0x3cba41ca	0.022736449
204	0xbdabec67	-0.083946995
205	0x3dbe22e5	0.09283999
206	0xbd985efc	-0.07439992
207	0x3de24647	0.110485606
208	0x3df8189f	0.12114071
209	0x3dabb699	0.08384437
210	0x3da8011b	0.08203336
211	0xbd841b7a	-0.06450553
212	0x3dd5e594	0.10444179
213	0xbcdf16b4	-0.027232505
214	0x3da9872a	0.082777336
215	0x3ddd11d0	0.10794413
216	0xbd39ff7e	-0.045409672
217	0x3d279829	0.040916596
218	0xbdb01d70	-0.08599365
219	0xbd3346a9	-0.04376856
220	0x3de714bb	0.11283251
221	0xbd4d7406	-0.050159477
222	0x3cb460d2	0.022018824
223	0xbde48b33	-0.11159363
224	0xbd192aa9	-0.0373942
225	0xbd8b252b	-0.067941986
226	0x3dd95157	0.106112175
227	0x3ce60fcb	0.028083703
228	0x3dce2993	0.100665234
229	0x3d1c2651	0.03812248
230	0x3d96f45b	0.07370826
231	0x3d686ba8	0.056743294
232	0xbcb7e5b0	-0.02244839
233	0x3deb94fc	0.11503026
234	0xbd9912da	-0.07474299
235	0xbde189ee	-0.11012636
236	0xbd832652	-0.064037934
237	0xbc700965	-0.014650677
238	0xbde8407d	-0.11340425
239	0x3cf4348d	0.029810214
240	0xbcf8c0c5	-0.030365357
241	0x3d2d6bec	0.04233925
242	0x3dc32dd2	0.09530224
243	0xbda65907	-0.08122449
244	0xbc5cc413	-0.013474482
245	0x3dcc6402	0.099800125
246	0x3d9134b6	0.07090132
247	0x3de3d8a1	0.11125303
248	0xbd7bffc4	-0.061523214
249	0xbd57c506	-0.05267813
250	0xbdaa9081	-0.08328343
251	0x3d8c0aa8	0.0683797
252	0xbd5cc702	-0.053900726
253	0xbad5a380	-0.0016299337
254	0xbdebd1d5	-0.11514632
255	0xbdba4c81	-0.09096623

network.4.bias f4 [32]
0	0xbd5ce89c	-0.05393277
1	0x3da2bf46	0.07946639
2	0x3caeb10a	0.021324653
3	0x3d0ce0a3	0.034393918
4	0xbd5158b0	-0.05110997
5	0x3d1d3c21	0.03838742
6	0xbdf2d47e	-0.11856936
7	0x3beedca4	0.007289486
8	0xbdbde0a5	-0.09271363
9	0xbdee7cf6	-0.11644928
10	0x3d518fca	0.05116252
11	0x3dac9332	0.08426513
12	0x3c1762bc	0.009239849
13	0xbc994d59	-0.01871364
14	0xbd3b43a9	-0.045718823
15	0x3df5a0fd	0.11993597
16	0x3cd99a0c	0.026562713
17	0xbc888f0a	-0.016669769
18	0xbdd6b75d	-0.104841925
19	0xbcabc7b4	-0.02096925
20	0x3d0758bf	0.03304362
21	0xbdb1d4ff	-0.08683204
22	0xbde64888	-0.11244303
23	0xbd6516f9	-0.05593011
24	0x3dce146d	0.1006249
25	0x3cc4b330	0.024011225
26	0xbdcefb13	-0.10106482
27	0xbd65c52d	-0.056096245
28	0x3acfb3d7	0.0015846443
29	0x3df301d2	0.118655816
30	0x3dd97f66	0.106200024
31	0xbd9091f2	-0.07059087

network.5.weight f4 [32]
0	0x3f7d78e6	0.990126
1	0x3f814832	1.0100157
2	0x3f8143f0	1.0098858
3	0x3f8139bb	1.0095743
4	0x3f813e6e	1.0097177
5	0x3f81386d	1.0095345
6	0x3f7f1cde	0.9965342
7	0x3f7d9b01	0.9906464
8	0x3f813f0b	1.0097364
9	0x3f7d8782	0.99034894
10	0x3f813fe7	1.0097626
11	0x3f813d9f	1.009693
12	0x3f814565	1.0099303
13	0x3f7d853c	0.99031425
14	0x3f7d811e	0.9902514
15	0x3f813bb7	1.0096349
16	0x3f7d8e33	0.99045104
17	0x3f81457e	1.0099332
18	0x3f7d9ed6	0.9907049
19	0x3f81421e	1.0098302
20	0x3f814031	1.0097715
21	0x3f7d8809	0.990357
22	0x3f7d8c0d	0.99041826
23	0x3f7d81ea	0.9902636
24	0x3f7d98b2	0.9906112
25	0x3f7d7e6c	0.9902103
26	0x3f8144d2	1.0099127
27	0x3f813b3d	1.0096203
28	0x3f7d822e	0.99026763
29	0x3f814ad7	1.0100964
30	0x3f8145eb	1.0099462
31	0x3f7d9a9f	0.9906406

network.5.bias f4 [32]
0	0xbc21ab43	-0.009867492
1	0x3c231a40	0.009954989
2	0x3c21fc89	0.009886869
3	0x3c1c62ab	0.009545009
4	0x3c219823	0.009862932
5	0x3c1ff20a	0.009762296
6	0xbb5574ba	-0.0032570795
7	0xbc1bf80e	-0.00951959
8	0x3c217803	0.009855273
9	0xbc21f386	-0.009884721
10	0x3c219c1a	0.009863878
11	0x3c212bec	0.009837132
12	0x3c22c90a	0.009935627
13	0xbc1f1102	-0.009708645
14	0xbc217269	-0.009853938
15	0x3c205977	0.009786955
16	0xbc1f0c54	-0.009707529
17	0x3c23567c	0.00996935
18	0xbc1c1fb7	-0.009529046
19	0x3c222136	0.009895613
20	0x3c21b7ed	0.0098705115
21	0xbc202ba6	-0.009776032
22	0xbc1d941b	-0.009617831
23	0xbc211ceb	-0.009833555
24	0xbc1ebebc	-0.009689029
25	0xbc225f49	-0.009910413
26	0x3c2388f7	0.009981385
27	0x3c1f9bea	0.009741763
28	0xbc22cc70	-0.009936437
29	0x3c257c9e	0.010100512
30	0x3c22ac6f	0.009928807
31	0xbc1cf804	-0.009580616

network.5.running_mean f4 [32]
0	0xbe2bb049	-0.16766466
1	0xbe4a2243	-0.19739632
2	0x3e5d91dc	0.21637672
3	0x3e427c1e	0.1899266
4	0x3c45e6b6	0.012078932
5	0x3e7f371e	0.2492337
6	0x3e4471b9	0.19184007
7	0x3e353a3b	0.17697994
8	0x3db8b264	0.090184
9	0xbd45f05e	-0.048324935
10	0x3d78d371	0.06074852
11	0x3dd68cfb	0.10476109
12	0xbe6df4f1	-0.23237969
13	0x3e780892	0.2422202
14	0xbe3d5d01	-0.1849251
15	0x3e1dae82	0.153986
16	0xbc41fb47	-0.011839694
17	0xbe348d5e	-0.17632052
18	0xbc4fc08a	-0.012680182
19	0xbe086c5a	-0.13322583
20	0x3e91fd5d	0.28513613
21	0xbdee04bb	-0.11621996
22	0x3d795f6d	0.06088202
23	0xbd39ecf0	-0.045391977
24	0x3d867de7	0.06566983
25	0xbdd74d06	-0.10512738
26	0xbe45c2ce	-0.19312593
27	0x3e628019	0.22119178
28	0xbd0c2d7b	-0.03422306
29	0xbe02a80b	-0.12759416
30	0xbe968a8f	-0.29402587
31	0x3c5284f3	0.01284908

network.5.running_var f4 [32]
0	0x3ece05b3	0.40238723
1	0x3ecfa169	0.40552834
2	0x3ecf5cbf	0.40500447
3	0x3ecbeb69	0.3982804
4	0x3f3c9bb8	0.7367511
5	0x3ed32b31	0.4124389
6	0x3eff4170	0.49854612
7	0x3eee585f	0.46551797
8	0x3ecc1faa	0.39867908
9	0x3ece4772	0.40288883
10	0x3f0ed16d	0.5578831
11	0x3f534b87	0.8253712
12	0x3f04b2ee	0.51835525
13	0x3edcc1e0	0.43116665
14	0x3ed54f35	0.41661993
15	0x3ec445f0	0.38334608
16	0x3ecc5ffc	0.3991698
17	0x3f0cd950	0.5501909
18	0x3ee2eafc	0.44319904
19	0x3f1a78a7	0.6034035
20	0x3ed6db97	0.4196441
21	0x3ecca0b1	0.39966348
22	0x3ec5bf14	0.38622344
23	0x3eedc8c1	0.46442226
24	0x3ed14571	0.40873292
25	0x3ee2755b	0.4423016
26	0x3ecb105e	0.39660925
27	0x3ed18630	0.4092269
28	0x3ec36c4e	0.38168567
29	0x3eedb521	0.46427253
30	0x3f26216b	0.6489474
31	0x3ed08352	0.4072519

network.8.weight f4 [1, 32]
0	0xbdcff8bd	-0.10154865
1	0x3de180e9	0.11010916
2	0x3cedfddf	0.02905172
3	0x3c207eca	0.009795854
4	0x3dfe9ae0	0.12431884
5	0x3de3a0de	0.11114667
6	0x3bd38e7f	0.006456196
7	0xbc7e3f7e	-0.015518067
8	0x3d319f0c	0.04336457
9	0xbde6ebd2	-0.11275448
10	0x3e16ce65	0.14727171
11	0x3e3c24a5	0.18373354
12	0x3e3c85fa	0.18410483
13	0xbe1cb656	-0.1530393
14	0xbe15b0e1	-0.14618255
15	0x3d8516e6	0.06498508
16	0xbc826431	-0.015916916
17	0x3d49c85a	0.049263336
18	0xbc164ced	-0.009173614
19	0x3e0b23a9	0.13587822
20	0x3d18221b	0.0371419
21	0xbd10e724	-0.035376683
22	0xbdb58057	-0.088623695
23	0xbdc65d9f	-0.096858256
24	0xbc6d77ef	-0.014493926
25	0xbe1cb91d	-0.1530499
26	0x3d909d41	0.07061244
27	0x3db7d0e4	0.089753896
28	0xbe2a18cd	-0.16611023
29	0x3cc4b805	0.024013529
30	0x3dfa4358	0.12219876
31	0xbc89300d	-0.016746545
