experiments/random_forest-20260109_144849/checkpoint_2026-01-09_14-49-15.108496/model.pth (torch, 17799 bytes, 13 tensors)

network.0.weight f4 [64, 10]
0.0022373812 -0.027822388 0.28354743 -0.19718324 0.08506775 0.23670335 0.025746958 -0.018049393
0.07749404 0.21659523 0.21133095 -0.16339898 0.13086314 -0.17789708 -0.27153337 -0.15348448
0.16888814 0.05570043 -0.20648474 -0.17488173 -0.2755261 -0.25803146 0.15357223 -0.17015442
0.19778655 -0.20793755 0.031010054 -0.012045407 0.309213 0.2796988 -0.17861634 -0.21837236
-0.1588655 -0.268222 -0.020513205 0.13719338 -0.2556377 -0.03207738 0.2502786 -0.123833776
-0.07862294 -0.22509798 -0.25131947 0.04318191 -0.03616766 -0.19523285 -0.07128297 -0.13828017
0.3002603 0.23215324 -0.016334299 0.043244645 0.07658009 0.29542798 -0.02659072 -0.24975157
0.12484456 -0.20116162 -0.10237672 0.17932464 0.16683413 -0.14728045 0.17629099 0.27842888
-0.26127505 -0.28446722 0.28813753 -0.24413824 0.118426815 -0.0011544595 -0.096155465 -0.109162375
0.09697063 -0.23623349 -0.2653976 0.010487182 0.1606164 0.22334217 0.22778451 0.15551649
-0.08803616 0.09732948 -0.206019 0.062013555 0.104864545 -0.18153384 0.20421757 -0.18944831
0.024787134 0.26145938 -0.19519883 -0.1752452 -0.19773406 -0.26307398 -0.01975102 -0.16165318
-0.11464408 -0.19121541 -0.28108287 0.27059376 0.1459642 0.124073386 -0.123777494 -0.26461112
0.1551562 -0.16331828 -0.11497384 -0.005604127 -0.18781653 0.20344636 0.24512926 0.021932136
-0.0049680034 0.21138215 -0.19235227 -0.17976919 0.24438116 0.27911833 0.022733431 -0.19581671
0.0984959 0.30518076 -0.033659793 0.09207508 -0.09154607 0.07925351 0.0546419 -0.17826013
-0.07648301 -0.08013957 -0.17963606 -0.15130271 0.22431591 -0.18741639 0.024852136 -0.06328184
0.18434164 -0.081200264 0.21435031 -0.00029899174 0.08003309 0.24530143 0.2642957 0.30097654
0.088011295 -0.19123068 -0.19410063 -0.18046813 0.10260059 -0.20306996 0.010450296 -0.26671144
-0.24222158 0.19909388 -0.29066923 0.04643337 -0.101093434 -0.2600611 0.14129063 -0.309337
0.07962818 -0.28167287 -0.13001782 0.19474958 -0.23461108 0.07751852 0.19644442 -0.14599578
0.12534884 -0.072397955 -0.12846307 0.2509464 0.29796812 -0.06485954 0.038549878 0.29129425
0.14799957 0.0765499 -0.28131792 0.18819569 -0.23959117 -0.109189026 -0.10282513 0.1991843
0.2059251 -0.08756529 0.28111157 0.23263603 -0.015216648 -0.049548663 -0.24919197 0.079853766
-0.03349811 0.12832172 -0.13353115 -0.0908721 0.01203241 -0.21040104 -0.02951988 0.09360759
0.004799977 -0.25152135 0.23971835 0.2536245 -0.1397138 0.12442692 0.13231133 0.22932403
0.20215674 -0.061821107 -0.19420302 -0.22012436 -0.31682166 0.19986182 -0.089628085 0.20953193
-0.28194678 -0.18338518 0.058590885 0.29545102 0.21400863 -0.02839765 -0.13169955 -0.0120042935
-0.27408063 0.30978572 0.22974898 0.0646366 0.030557515 -0.10696256 -0.122129224 0.05383256
0.3006374 0.14385423 0.16301243 -0.11912029 -0.17566046 0.1728518 0.18864128 -0.25706708
-0.28163558 0.24964237 0.29309005 0.000134815 0.1652792 -0.061505172 -0.03487286 -0.14358842
-0.061447244 0.03609611 -0.2435666 0.15945414 -0.14537689 -0.2877892 0.26249057 0.10437964
00000000: 07a1 123b c7eb e3bc 212d 913e 67ea 49be
00000010: 0038 ae3d 5d62 723e 49eb d23c 52dc 93bc
00000020: 32b5 9e3d 24cb 5d3e 2467 583e 1052 27be
00000030: fd00 063e a72a 36be 6c06 8bbe 092b 1dbe
00000040: 03f1 2c3e 2226 643d bc70 53be 3214 33be
00000050: c211 8dbe b31c 84be 0a42 1d3e f63c 2ebe
00000060: 8f88 4a3e 95ed 54be cc08 fe3c 195a 45bc
00000070: 2b51 9e3e ae34 8f3e 34e7 36be 019d 5fbe
00000080: a3ad 22be 6554 89be 4f0b a8bc 6c7c 0c3e
00000090: f2e2 82be 9263 03bd 8424 803e 909c fdbd
000000a0: 1005 a1bd 1680 66be f2ac 80be 84df 303d
000000b0: 8a24 14bd 1feb 47be cefc 91bd 5199 0dbe
000000c0: b8bb 993e 94b9 6d3e 82cf 85bc 4c21 313d
000000d0: 06d6 9c3d 5642 973e c8d4 d9bc e0be 7fbe
000000e0: 81ae ff3d 50fd 4dbe e3aa d1bd e1a0 373e
000000f0: 91d6 2a3e b0d0 16be a085 343e 3b8e 8e3e
00000100: d8c5 85be b0a5 91be c386 933e 60ff 79be
00000110: c289 f23d 3c51 97ba 28ed c4bd 8690 dfbd
00000120: 8a98 c63d 31e7 71be 32e2 87be 6ed2 2b3c
00000130: a078 243e cfb3 643e 5840 693e b73f 1f3e
00000140: 4d4c b4bd ae54 c73d a5f6 52be ed01 7e3d
00000150: 39c3 d63d 02e4 39be 691e 513e bdfe 41be
00000160: 630e cb3c 01de 853e 34e2 47be 7a73 33be
00000170: cc7a 4abe a2b1 86be e4cc a1bc 6988 25be
00000180: 84ca eabd f9cd 43be 18ea 8fbe 448b 8a3e
00000190: a477 153e 301a fe3d 0e7f fdbd 1c7b 87be
000001a0: 44e1 1e3e e83c 27be 6877 ebbd d3a2 b7bb
000001b0: fa52 40be 3e54 503e 2a03 7b3e 06ab b33c
000001c0: a2ca a2bb 9074 583e fef7 44be 6a15 38be
000001d0: 0e3f 7a3e 99e8 8e3e 763b ba3c 2d84 48be
000001e0: 38b8 c93d a740 9c3e dade 09bd dc91 bc3d
000001f0: 827c bbbd aa4f a23d 2fd0 5f3d d389 36be
00000200: 20a3 9cbd 3720 a4bd 84f2 37be 19ef 1abe
00000210: 12b3 653e 15ea 3fbe b596 cb3c e999 81bd
00000220: 0ec4 3c3e 534c a6bd a67e 5b3e fec1 9cb9
00000230: 64e8 a33d 4c30 7b3e c451 873e 9919 9a3e
00000240: 443f b43d fad1 43be 51c2 46be a3cc 38be
00000250: 4220 d23d 92f1 4fbe b837 2b3c 678e 88be
00000260: ef08 78be 44df 4b3e 99d2 94be eb30 3e3d
00000270: 130a cfbd ba26 85be 7eae 103e 6b61 9ebe
00000280: 1914 a33d 6d37 90be 6423 05be 6f6c 473e
00000290: e33d 70be 08c2 9e3d ba28 493e eb7f 15be
000002a0: 725b 003e 6145 94bd d38b 03be 0c7c 803e
000002b0: 478f 983e 14d5 84bd 7ae6 1d3d 8524 953e
000002c0: 338d 173e 32c6 9c3d e708 90be 5fb6 403e
000002d0: 6357 75be 7f9e dfbd fb95 d2bd f8f6 4b3e
000002e0: 08de 523e 6e55 b3bd dbed 8f3e 2438 6e3e
000002f0: 3f4f 79bc 8af3 4abd 2e2c 7fbe 5f8a a33d
00000300: 5035 09bd c566 033e 64bc 08be 271b babd
00000310: 9623 453c 5f73 57be add3 f1bc 56b5 bf3d
00000320: 2049 9d3b 68c7 80be ba78 753e 12db 813e
00000330: 2211 0fbe 8bd3 fe3d 9f7c 073e ebd3 6a3e
00000340: 2d02 4f3e 2138 7dbd 28dd 46be 4868 61be
00000350: 7336 a2be 94a8 4c3e ee8e b7bd 8a8f 563e
00000360: 545b 90be 53c9 3bbe fffc 6f3d 5b45 973e
00000370: 1425 5b3e 30a2 e8bc 3fdc 06be a8ad 44bc
00000380: 4c54 8cbe 3c9c 9e3e 5143 6b3e 3260 843d
00000390: c153 fa3c 300f dbbd e31e fabd 887f 5c3d
000003a0: 25ed 993e 864e 133e bbec 263e 57f5 f3bd
000003b0: 56e0 33be 1000 313e 2e2b 413e 4c9e 83be
000003c0: 8a32 90be 40a2 7f3e e60f 963e 205d 0d39
000003d0: f33e 293e d9ec 7bbd d8d6 0ebd d808 13be
000003e0: 1bb0 7bbd 84d9 133d 8669 79be f247 233e
000003f0: aedd 14be 1b59 93be 2a65 863e fec4 d53d

network.0.bias f4 [64]
0.1939725 0.23506148 -0.16727039 -0.13488229 0.018623741 0.29728878 0.1480443 0.082334675
0.029388597 -0.14742935 -0.012580085 -0.30975762 0.1601334 -0.26944435 -0.20830649 0.15033191
0.07557307 0.17012629 -0.06724086 -0.1320805 -0.16345958 0.29687783 0.019896911 0.07057959
0.13875458 0.27394205 -0.26484177 0.29845175 -0.20817271 -0.08317249 0.120261125 0.2823718
0.071515806 0.21322991 0.16484138 0.030253436 0.26280388 0.09074202 0.07461872 -0.038879458
0.12598674 0.06557949 0.13709687 0.08388645 -0.070954815 0.21426477 0.3091722 0.17259121
-0.07613627 0.26878184 0.023503482 0.037716784 0.2602245 0.06545153 0.15094423 -0.029494308
0.042868864 -0.051740862 0.2752004 -0.13682377 -0.018039972 -0.19688489 0.051867012 0.058891874
00000000: baa0 463e f5b3 703e ee48 2bbe 951e 0abe
00000010: d190 983c 3c36 983e ed98 173e 159f a83d
00000020: 5bc0 f03c b8f7 16be b31c 4ebc 8d98 9ebe
00000030: 03fa 233e 9cf4 89be 4c4e 55be 9cf0 193e
00000040: 0ec6 9a3d 9635 2e3e 93b5 89bd 1c40 07be
00000050: f361 27be 5f00 983e d9fe a23c 088c 903d
00000060: ae15 0e3e 2242 8c3e 5799 87be abce 983e
00000070: 3a2b 55be 5756 aabd 774b f63d 0993 903e
00000080: e176 923d f158 5a3e 2ecc 283e 0ed6 f73c
00000090: 3b8e 863e f4d6 b93d b3d1 983d 1140 1fbd
000000a0: ab02 013e 8a4e 863d 1f63 0c3e a9cc ab3d
000000b0: c250 91bd 3968 5b3e d24b 9e3e c0bb 303e
000000c0: 55ed 9bbd c69d 893e 608a c03c ea7c 1a3d
000000d0: 253c 853e 740b 863d 2091 1a3e 0c9e f1bc
000000e0: 4397 2f3d 3aee 53bd 11e7 8c3e 881b 0cbe
000000f0: 90c8 93bc 319c 49be 8172 543d 9b38 713d

network.1.weight f4 [64]
1.0058829 1.0002402 0.99177164 1.0084369 1.0010997 1.0044317 0.99380827 1.0054247
1.0085825 1.0005021 0.99379015 0.9974568 0.99300873 1.0058316 1.0031004 1.0082632
1.0000429 0.99922806 1.000264 1.0043831 1.0038464 0.9919954 1.0084753 0.9938891
1.003673 1.005899 0.9952236 0.9914609 1.0090884 1.0040011 0.9934436 1.0074053
0.9954847 0.9914376 1.0004164 1.0017064 1.0095077 0.99692136 0.99141467 1.0044433
0.9923595 0.9979467 1.0081269 1.0068804 1.0025065 0.9928873 1.0051754 1.0024194
0.9968651 0.9934461 1.0028515 1.0088823 0.99210924 0.99167496 0.9989964 0.993878
1.0044084 0.99243647 1.0074311 0.9927655 1.0067984 1.0003115 1.0046588 0.99774975
00000000: c5c0 803f df07 803f bfe4 7d3f 7614 813f
00000010: 0924 803f 3891 803f 386a 7e3f c2b1 803f
00000020: 3b19 813f 7410 803f 0869 7e3f 5459 7f3f
00000030: d235 7e3f 17bf 803f 9865 803f c50e 813f
00000040: 6801 803f 69cd 7f3f a708 803f a08f 803f
00000050: 0a7e 803f 69f3 7d3f b815 813f 846f 7e3f
00000060: 5b78 803f 4cc1 803f f9c6 7e3f 62d0 7d3f
00000070: cf29 813f 1c83 803f 5252 7e3f a8f2 803f
00000080: 16d8 7e3f dbce 7d3f a50d 803f ea37 803f
00000090: 8c37 813f 3d36 7f3f 5acd 7d3f 9991 803f
000000a0: 460b 7e3f 6f79 7f3f 4d0a 813f 75e1 803f
000000b0: 2252 803f dd2d 7e3f 96a9 803f 474f 803f
000000c0: 8d32 7f3f 7c52 7e3f 705d 803f 0e23 813f
000000d0: dffa 7d3f 69de 7d3f 3abe 7f3f ca6e 7e3f
000000e0: 7490 803f 5110 7e3f 81f3 803f e125 7e3f
000000f0: c5de 803f 350a 803f a998 803f 876c 7f3f

network.1.bias f4 [64]
0.004486029 -0.0011410936 -0.009480491 0.009152495 0.0011199501 0.003153808 0.0036131372 0.004087616
0.007154919 0.0028443406 0.00010920181 0.0013796892 -0.0044191927 0.005102185 0.006408595 0.00937613
0.00342941 -0.0033768287 -0.0047775167 0.0039793537 0.0038505674 -0.007752828 0.0030452975 -0.005094126
0.008196017 -0.009269912 -0.00183555 -0.009173105 6.748858e-05 -0.0065587712 -0.007879643 -0.00055100454
-0.0024635263 -0.0040587126 0.002351017 0.0067419456 0.0069513335 -0.0011297063 -0.0015347423 -0.005990272
-0.0080768475 -0.001914772 0.0069940565 0.0069429097 0.0074796486 -0.0090990905 0.0042732065 0.0046433397
-0.0004176416 -0.004136881 -0.0005991426 0.0059435163 -0.0067588915 -0.005798569 0.00045334047 -0.00022742705
-0.0063312836 0.00096867135 0.00987366 -0.007149908 0.0036644787 -0.000842036 0.0021558336 -0.008882662
00000000: 8aff 923b bf90 95ba 1054 1bbc 59f4 153c
00000010: 4acb 923a 1eb0 4e3b 62ca 6c3b 69f1 853b
00000020: d073 ea3b 1e68 3a3b 4603 e538 b0d6 b43a
00000030: e0ce 90bb 3b30 a73b 31ff d13b 579e 193c
00000040: f4bf 603b c94d 5dbb b78c 9cbb 3d65 823b
00000050: cd59 7c3b 6f0b febb 9d93 473b a0ec a6bb
00000060: 9648 063c d4e0 17bc d696 f0ba ca4a 16bc
00000070: a888 8d38 f6ea d6bb 9e19 01bc 4a71 10ba
00000080: 1d73 21bb f3fe 84bb 8513 1a3b 8aeb dc3b
00000090: 03c8 e33b a712 94ba 6829 c9ba 0b4a c4bb
000000a0: c154 04bc 16f9 faba 662e e53b 5981 e33b
000000b0: d717 f53b 5a14 15bc 4106 8c3b 2827 983b
000000c0: e8f6 dab9 ac8e 87bb c70f 1dba d4c1 c23b
000000d0: b179 ddbb ec01 bebb 54ae ed39 7c79 6eb9
000000e0: a876 cfbb 6fee 7d3a 22c5 213c c749 eabb
000000f0: c027 703b 14bc 5cba e348 0d3b 9688 11bc

network.1.running_mean f4 [64]
23.06795 -71.6981 50.7717 -6.3541627 -8.828652 -7.733191 -67.8361 -67.63928
28.41716 -4.647454 40.514362 -50.732616 -23.382101 5.505142 21.594145 -75.77032
-60.378044 11.329991 54.943966 -35.803696 -37.38026 -23.047127 -70.70714 43.491375
41.90747 68.6439 -73.604774 -73.73291 75.60263 -56.546562 -2.582482 -25.586298
-50.687782 33.921703 37.451378 66.28658 1.528413 -65.356125 1.5942035 2.659248
-52.128426 61.976727 27.805952 -55.059124 -27.251665 -9.178095 -31.9515 -42.108208
6.693881 69.681656 -8.773511 -43.88845 -45.360046 28.859962 -14.720033 81.595985
11.7934 73.859795 -28.009554 -59.46553 46.19192 -24.908373 -62.313816 -32.04281
00000000: 298b b841 6d65 8fc2 3916 4b42 4d55 cbc0
00000010: 2942 0dc1 4d76 f7c0 15ac 87c2 5047 87c2
00000020: 5856 e341 f1b7 94c0 b50e 2242 33ee 4ac2
00000030: 8b0e bbc1 202a b040 cfc0 ac41 678a 97c2
00000040: 1e83 71c2 a547 3541 9fc6 5b42 fc36 0fc2
00000050: 6385 15c2 8460 b8c1 0e6a 8dc2 2bf7 2d42
00000060: 40a1 2742 ad49 8942 a535 93c2 4077 93c2
00000070: 8c34 9742 ae2f 62c2 6347 25c0 bdb0 ccc1
00000080: 4ac0 4ac2 d3af 0742 36ce 1542 bb92 8442
00000090: 0aa3 c33f 56b6 82c2 dc0e cc3f 1f31 2a40
000000a0: 8283 50c2 2be8 7742 9772 de41 8b3c 5cc2
000000b0: 6903 dac1 7ad9 12c1 ac9c ffc1 ce6e 28c2
000000c0: 4634 d640 025d 8b42 4d60 0cc1 c68d 2fc2
000000d0: b070 35c2 34e1 e641 4185 6bc1 2531 a342
000000e0: c4b1 3c41 37b8 9342 9113 e0c1 b4dc 6dc2
000000f0: 87c4 3842 5944 c7c1 5941 79c2 d62b 00c2

network.1.running_var f4 [64]
268.47665 2652.434 1319.9486 19.937416 41.10559 32.851585 2375.004 2379.2476
412.61786 10.404928 846.1272 1326.2537 280.6701 16.631018 248.09056 2933.9463
1876.949 64.253174 1539.3457 651.92944 724.87524 274.0831 2578.4734 969.536
903.5344 2402.6663 2761.2861 2793.818 2965.0232 1641.056 4.2070403 342.57358
1322.3074 586.35297 720.5965 2268.2527 1.685211 2174.7322 2.0270753 4.567547
1408.0978 1972.6261 384.41415 1566.5133 380.94913 48.651962 530.0469 911.84607
23.712322 2472.5295 42.83848 989.68134 1065.8135 432.5897 114.028915 3411.3486
69.43995 2801.6926 401.8068 1811.4357 1096.6903 322.62378 2014.8334 527.2238
00000000: 033d 8643 f2c6 2545 5bfe a444 d47f 9f41
00000010: 206c 2442 0668 0342 1070 1445 f6b3 1445
00000020: 164f ce43 967a 2641 2488 5344 1ec8 a544
00000030: c655 8c43 530c 8541 2f17 7843 245f 3745
00000040: 5e9e ea44 a081 8042 106b c044 7cfb 2244
00000050: 0438 3544 a30a 8943 9327 2145 4e62 7244
00000060: 34e2 6144 a92a 1645 9494 2c45 179d 2e45
00000070: 5f50 3945 cb21 cd44 13a0 8640 6b49 ab43
00000080: d649 a544 9796 1244 2d26 3444 0bc4 0d45
00000090: feb4 d73f b7eb 0745 9abb 0140 5829 9240
000000a0: 2103 b044 0994 f644 0335 c043 6dd0 c344
000000b0: 7d79 be43 9c9b 4242 0083 0444 26f6 6344
000000c0: d6b2 bd41 7988 1a45 9b5a 2b42 9b6b 7744
000000d0: 083a 8544 7b4b d843 ce0e e442 9435 5545
000000e0: 41e1 8a42 151b 2f45 45e7 c843 f16d e244
000000f0: 1716 8944 d84f a143 abda fb44 53ce 0344

network.4.weight f4 [32, 64]
0.038122483 -0.082146585 0.04942097 -0.026466006 -0.009252993 -0.044361252 -0.083828345 0.02214032
-0.042990975 -0.11237068 -0.08606583 0.042517405 -0.12571195 -0.032933902 0.05237641 0.073963486
-0.0722974 0.08059648 -0.088171355 -0.010961806 0.01489569 -0.098847754 -0.111396685 0.036397256
-0.05295772 0.12437552 0.10436324 -0.045824517 -0.049772672 -0.100822575 0.05997455 0.06066453
-0.10741176 -0.03560529 -0.06421535 -0.11328765 -0.015822357 -0.019992119 -0.11524093 -0.12006056
-0.08023018 -0.0538482 0.0146053145 -0.09245409 -0.10366476 -0.09024622 -0.12571593 -0.05439163
0.03557131 -0.047743797 0.11525631 -0.017912136 -0.10975192 0.028354518 -0.121031 -0.0092541715
0.057222277 0.00091342384 -0.045907315 0.06386483 -0.06514408 0.11733937 -0.010944659 -0.07753464
-0.031035017 -0.11892236 -0.084197454 -0.12768273 -0.09617625 0.03773524 0.04486677 0.01843941
-0.057400882 -0.11623818 -0.0045593693 -0.02241227 -0.09156327 -0.11759381 0.035919268 0.05292599
-0.03864113 -0.095956855 0.054074753 -0.11615007 0.11005737 0.028619543 0.0110761365 -0.013052471
0.062534966 -0.09735859 0.04502293 -0.0048729563 0.034927163 -0.12037933 -0.07537729 0.05166614
-0.011549032 -0.008220522 -0.09932032 0.048200298 0.085626274 0.113343835 0.022529561 0.013298541
-0.102080666 0.07515745 0.06726648 0.018215427 -0.121565536 0.10851769 -0.110254094 0.057919282
0.04443247 0.093537614 -0.09084187 -0.040274296 -0.13103393 -0.0010618803 0.096694924 0.0835736
0.103785 0.049225908 -0.017473318 -0.06401933 -0.09308075 -0.061324462 0.11134074 -0.12679501
0.101856336 0.068514526 0.022645824 0.102162614 -0.06457149 -0.11221546 0.045855645 0.073914476
0.03353653 -0.10016866 0.071551204 0.060868483 0.06645 -0.096996956 0.11372009 -0.12536286
0.061312996 0.010432982 -0.13307282 -0.09252798 0.0032450634 0.055930533 0.021427019 -0.05950682
-0.0035631263 -0.08595638 0.10642581 0.017986901 0.03664105 -0.075691864 0.059918445 -0.0042188126
-0.033753633 0.099481165 0.08807586 0.065455906 -0.014473545 -0.07951296 0.075968854 -0.07736807
0.052837003 -0.11915777 -0.11690176 0.0070530297 0.0628476 0.052424967 -0.11668237 -0.020168634
0.0051290193 -0.12745778 -0.11040234 -0.018975874 -0.027433662 0.03785642 0.068566255 -0.11456422
-0.06278002 0.04502718 -0.020161461 0.07378068 -0.116681285 0.017102085 0.088971786 0.085009575
-0.08435529 0.000438907 -0.032619786 0.12592427 0.11380532 -0.019728672 0.08439687 0.043290902
0.078623645 -0.030149808 -0.08614992 -0.017059602 0.05512066 0.013174004 0.007837445 0.10283923
0.034152877 -0.08631981 -0.0045937547 -0.0051185424 0.107273385 -0.08343386 0.059285875 -0.028780568
-0.1015285 -0.02381641 -0.04186954 0.022081204 -0.05086988 -0.03424892 -0.08536473 0.053778958
-0.069149956 0.01856588 -0.00784968 -0.10433449 -0.011423128 0.047120277 -0.062276058 -0.0055847457
-0.10872016 -0.083325356 0.10755129 0.093520045 0.05283059 -0.101170994 0.039370127 0.11138431
0.056983627 0.04515853 -0.093813665 -0.08311408 -0.07644907 0.08233888 0.06614204 -0.12811086
0.08121064 0.046581957 0.122259334 -0.004435542 -0.042926498 0.06239981 0.04565578 -0.093138136
00000000: 5226 1c3d 783c a8bd a56d 4a3d 3dcf d8bc
00000010: de99 17bc 25b4 35bd 32ae abbd 9e5f b53c
00000020: 4e17 30bd 9922 e6bd 4843 b0bd bb26 2e3d
00000030: a2ba 00be b3e5 06bd a688 563d 2b7a 973d
00000040: a910 94bd c40f a53d 2f93 b4bd 2699 33bc
00000050: 0d0d 743c b170 cabd f223 e4bd 4a15 153d
00000060: 32ea 58bd 98b8 fe3d 65bc d53d 7db2 3bbd
00000070: 6ede 4bbd 117c cebd e0a7 753d 5f7b 783d
00000080: b2fa dbbd dad6 11bd 5683 83bd 5b03 e8bd
00000090: e39d 81bc 83c6 a3bc 7003 ecbd 50e2 f5bd
000000a0: b84f a4bd ee8f 5cbd 214b 6f3c 9258 bdbd
000000b0: 314e d4bd 03d3 b8bd adbb 00be c2c9 5ebd
000000c0: 39b3 113d 008f 43bd 800b ec3d 79bc 92bc
000000d0: 9dc5 e0bd bc47 e83c 1adf f7bd cf9e 17bc
000000e0: e861 6a3d d672 6f3a 4f09 3cbd 90cb 823d
000000f0: 426a 85bd a04f f03d 3a51 33bc 7bca 9ebd
00000100: 263d febc 918d f3bd b76f acbd 43bf 02be
00000110: 0ef8 c4bd 4490 1a3d 38c6 373d 3f0e 973c
00000120: 301d 6bbd 480e eebd c366 95bb f099 b7bc
00000130: 8685 bbbd 06d5 f0bd 1520 133d ecc8 583d
00000140: 2946 1ebd 0785 c4bd 7d7d 5d3d 17e0 edbd
00000150: c265 e13d 8873 ea3c af78 353c 08da 55bc
00000160: 5512 803d f163 c7bd f769 383d 52ad 9fbb
00000170: c90f 0f3d 7089 f6bd 695f 9abd e09f 533d
00000180: 2738 3dbc 5eaf 06bc 7468 cbbd ad6d 453d
00000190: d45c af3d d020 e83d ea8f b83c 20e2 593c
000001a0: ab0f d1bd 26ec 993d 02c3 893d 8538 953c
000001b0: 5af7 f8bd 863e de3d e6cc e1bd c53c 6d3d
000001c0: d2fe 353d a690 bf3d 4d0b babd a9f6 24bd
000001d0: c22d 06be ca2e 8bba fd07 c63d a328 ab3d
000001e0: 3b8d d43d 1ba1 493d 3424 8fbc 911c 83bd
000001f0: 1fa1 bebd 5c2f 7bbd 9d06 e43d 8dd6 01be
00000200: 0e9a d03d 5851 8c3d bc83 b93c a23a d13d
00000210: 0f3e 84bd 38d1 e5bd 21d3 3b3d 7960 973d
00000220: 9a5d 093d 3a25 cdbd 7089 923d 3b51 793d
00000230: f016 883d 57a6 c6bd 14e6 e83d 1f5f 00be
00000240: 5623 7b3d 19ef 2a3c 3e44 08be 4f7f bdbd
00000250: 21ab 543b 6a17 653d b787 af3c 6cbd 73bd
00000260: 5783 69bb e609 b0bd c6f5 d93d 4459 933c
00000270: ed14 163d 5604 9bbd 0b6d 753d f73d 8abb
00000280: 4041 0abd c8bc cb3d 1e61 b43d bf0d 863d
00000290: 7322 6dbc b1d7 a2bd 8f95 9b3d 2773 9ebd
000002a0: 9d6b 583d fd08 f4bd 316a efbd 1a1d e73b
000002b0: 3eb6 803d 90bb 563d 2bf7 eebd b138 a5bc
000002c0: 5511 a83b 4b84 02be 9f1a e2bd 4b73 9bbc
000002d0: 8fbc e0bc 550f 1b3d 776c 8c3d a5a0 eabd
000002e0: d092 80bd 6c6e 383d a629 a5bc 531a 973d
000002f0: 99f6 eebd ac19 8c3c d736 b63d 8019 ae3d
00000300: 77c2 acbd 1a1d e639 539c 05bd 4bf2 003e
00000310: c312 e93d 069e a1bc 44d8 ac3d cd51 313d
00000320: 6f05 a13d bbfc f6bc 5f6f b0bd 94c0 8bbc
00000330: 34c6 613d c7d7 573c a068 003c 609d d23d
00000340: e3e3 0b3d 71c8 b0bd 3587 96bb 72b9 a7bb
00000350: 26b2 db3d 5fdf aabd bfd5 723d 3ac5 ebbc
00000360: 2dee cfbd a21a c3bc 657f 2bbd a4e3 b43c
00000370: ef5c 50bd 9848 0cbd b4d3 aebd 5347 5c3d
00000380: 7e9e 8dbd 7917 983c f29b 00bc 52ad d5bd
00000390: 1228 3bbc 3101 413d 2e15 7fbd 3e00 b7bb
000003a0: ada8 debd 7ca6 aabd da43 dc3d 7087 bf3d
000003b0: e464 583d bd32 cfbd 9242 213d 751d e43d
000003c0: aa67 693d 27f8 383d 6121 c0bd b737 aabd
000003d0: 5491 9cbd 49a1 a83d 7a75 873d 7e2f 03be
000003e0: c451 a63d b9cc 3e3d 1a63 fa3d 0658 91bb
000003f0: b2d3 2fbd f196 7f3d 8e01 3b3d 35bf bebd

network.4.bias f4 [32]
-0.12381911 -0.032258525 0.029404258 -0.001970643 0.07129415 0.036626335 -0.025129173 0.044988576
-0.019313175 -0.09334637 -0.037675496 0.035681926 -0.0076617124 0.044871498 0.023075933 -0.10031646
0.09256276 0.040756468 0.0840451 0.06518221 0.07828335 -0.022702053 -0.11875512 0.012174324
-0.10734928 -0.09243871 0.06570671 0.02092429 -0.110357665 -0.024711862 0.077460855 -0.0961839
00000000: e094 fdbd 8421 04bd 33e1 f03c e725 01bb
00000010: ab02 923d 7f05 163d b2db cdbc f145 383d
00000020: aa36 9ebc 622c bfbd 9f51 1abd 3627 123d
00000030: 1a0f fbbb 2dcb 373d bd09 bd3c b772 cdbd
00000040: 8b91 bd3d 41f0 263d d61f ac3d 407e 853d
00000050: 0553 a03d a8f9 b9bc e235 f3bd d176 473c
00000060: f0d9 dbbd 8250 bdbd 3d91 863d 6b69 ab3c
00000070: 3303 e2bd 8870 cabc cca3 9e3d 11fc c4bd

network.5.weight f4 [32]
0.990048 1.0101001 0.9905634 1.0093781 0.9903527 1.0100803 1.0094137 1.0100613
0.991339 1.0026811 0.99001265 0.9902864 0.99007964 0.990381 1.0101078 0.9900337
1.0101093 1.0097288 0.9900122 0.99035174 1.0094675 0.990885 1.0099909 1.009651
0.99027646 1.0099454 1.0100772 0.9899819 1.0093796 0.9903293 1.0100461 1.0096352
00000000: c973 7d3f f64a 813f 9095 7d3f 4d33 813f
00000010: c187 7d3f 504a 813f 7834 813f b049 813f
00000020: 65c8 7d3f db57 803f 7871 7d3f 6983 7d3f
00000030: dc75 7d3f 9c89 7d3f 364b 813f d972 7d3f
00000040: 434b 813f cb3e 813f 7171 7d3f b187 7d3f
00000050: 3b36 813f a4aa 7d3f 6247 813f 3e3c 813f
00000060: c282 7d3f e445 813f 364a 813f 746f 7d3f
00000070: 5a33 813f 3986 7d3f 3149 813f ba3b 813f

network.5.bias f4 [32]
-0.009989041 0.010042825 -0.009669046 0.009636108 -0.009679239 0.010072906 0.009583883 0.01004896
-0.008773196 0.0029302426 -0.009960121 -0.009735425 -0.009903591 -0.009691571 0.010101324 -0.00992124
0.010115944 0.009815711 -0.009934485 -0.009794813 0.009622931 -0.00942223 0.009942625 0.009750037
-0.009757098 0.0099394815 0.010097359 -0.009945914 0.009626392 -0.009731071 0.01009056 0.009739301
00000000: 13a9 23bc a98a 243c eb6a 1ebc c4e0 1d3c
00000010: ac95 1ebc d408 253c b805 1d3c 65a4 243c
00000020: 73bd 0fbc 5009 403b c62f 23bc 5581 1fbc
00000030: ac42 22bc 65c9 1ebc 0680 253c b28c 22bc
00000040: 58bd 253c 13d2 203c 40c4 22bc 6c7a 20bc
00000050: 7fa9 1d3c b25f 1abc 64e6 223c 9fbe 1f3c
00000060: 3cdc 1fbc 35d9 223c 656f 253c 30f4 22bc
00000070: 04b8 1d3c 126f 1fbc e052 253c 9791 1f3c

network.5.running_mean f4 [32]
-0.58656824 -0.18857336 0.042429246 0.022095319 0.0073566516 -0.32369372 0.07820744 -0.23710607
-0.13516529 -0.124851085 -0.23334923 0.09963294 -0.06683859 0.16987799 0.022317134 -0.0027140467
-0.2381156 0.10477734 -0.005931635 0.065411605 0.1590021 0.30212963 -0.08849617 0.2830352
-0.1389048 -0.38263458 -0.028450353 0.02894085 -0.05335483 -0.14213091 0.12464209 -0.16353148
00000000: 5629 16bf 6019 41be 4aca 2d3d 3e01 b53c
00000010: 1110 f13b 2fbb a5be 392b a03d efcb 72be
00000020: c568 0abe edb1 ffbd 1af3 6ebe 5b0c cc3d
00000030: ace2 88bd 7ff4 2d3e 6cd2 b63c 26de 31bb
00000040: 93d4 73be 8195 d63d 295e c2bb 85f6 853d
00000050: 72d1 223e bcb0 9a3e 7b3d b5bd fde9 903e
00000060: 0f3d 0ebe aee8 c3be b710 e9bc 5d15 ed3c
00000070: 988a 5abd c48a 11be 5a44 ff3d cc74 27be

network.5.running_var f4 [32]
0.62326723 0.52115995 0.42399308 0.45307636 0.38553724 0.46199098 0.46673042 0.41181406
0.39428315 0.38616365 0.4475271 0.37901205 0.39820102 0.40835476 0.6525792 0.40776616
0.6177133 0.38201994 0.48684445 0.38153213 0.4307249 0.4814335 0.37753674 0.6960123
0.38763693 0.43110138 0.543171 0.51966697 0.40760663 0.3912003 0.618861 0.40790302
00000000: 718e 1f3f bd6a 053f 9f15 d93e a0f9 e73e
00000010: 2365 c53e 158a ec3e 4af7 ee3e 4bd9 d23e
00000020: 7bdf c93e 3eb7 c53e 4622 e53e de0d c23e
00000030: 01e1 cb3e e013 d13e 6e0f 273f bac6 d03e
00000040: 7522 1e3f 1e98 c33e ad43 f93e 2e58 c33e
00000050: f987 dc3e 747e f63e 7f4c c13e dd2d 323f
00000060: 5978 c63e 52b9 dc3e 410d 0b3f e508 053f
00000070: d1b1 d03e 684b c83e ad6d 1e3f aad8 d03e

network.8.weight f4 [1, 32]
-0.10583978 0.14224394 -0.13113028 0.13485704 -0.106749855 0.030745108 0.13000767 0.028982041
4.2173837e-05 0.008294611 -0.16523618 -0.11548044 -0.09616319 -0.16261303 0.07253206 -0.051026966
0.015964484 0.12850653 -0.06281941 -0.12206536 0.05007541 -0.044933286 0.083613284 0.027169717
-0.09791833 0.08236969 0.0794624 -0.101540826 0.115459055 -0.06688978 0.14417519 0.18251662
00000000: 87c2 d8bd 65a8 113e 0447 06be f717 0a3e
00000010: ab9f dabd 2add fb3c bb20 053e bf6b ed3c
00000020: d0e3 3038 1fe6 073c ac33 29be 0281 ecbd
00000030: 35f1 c4bd 0884 26be b08b 943d a701 51bd
00000040: f3c7 823c 3797 033e 76a7 80bd 67fd f9bd
00000050: e01b 4d3d f70b 38bd 713d ab3d 0793 de3c
00000060: 6889 c8bd 71b1 a83d 2fbd a23d a3f4 cfbd
00000070: cc75 ec3d 82fd 88bd a9a2 133e a3e5 3a3e
